actor_weights.pth (torch_old, 89110 bytes, 10 tensors)

fc1.weight f4 [128, 33]
0	0x3ceab6bc	0.028651588
1	0x3eac6569	0.3367112
2	0xbe1aabd7	-0.15104614
3	0x3d4f3360	0.050586104
4	0xbe6ba499	-0.23012008
5	0xbdab0d74	-0.08352175
6	0x3dfec40d	0.124397375
7	0xbcbfcbfe	-0.0234127
8	0x3e889167	0.26673433
9	0xbc246109	-0.010032901
10	0xbce1c9de	-0.027562078
11	0xbd223962	-0.039605506
12	0xbcff5236	-0.03116713
13	0xbda01c30	-0.07817876
14	0xbdc6f613	-0.09714904
15	0x3d652d3b	0.05595134
16	0x3df5bdfb	0.119991265
17	0x3e0a174f	0.13485454
18	0xbdf71938	-0.12065357
19	0x3e4731e3	0.19452624
20	0x3a8cf8b2	0.0010755269
21	0x3d329220	0.043596387
22	0x3d2caca0	0.042156816
23	0xbda7a68f	-0.081860654
24	0xbde4e06a	-0.11175616
25	0x3c4ad3d9	0.01237961
26	0xbe115db0	-0.14195895
27	0xbde6aaf2	-0.11263074
28	0x3dc0a015	0.09405533
29	0x3d78102e	0.060562305
30	0x3db8212f	0.08990704
31	0xbc1fffe8	-0.009765603
32	0xbe583dcf	-0.21117328
33	0xbb8eb1c9	-0.0043546897
34	0x3e2a67b7	0.16641127
35	0x3d34af4c	0.04411249
36	0x3d17a61e	0.037023656
37	0x3d7014fe	0.05861377
38	0xbdcf0f2b	-0.10110315
39	0xbdc20cf5	-0.094751276
40	0x3c93926d	0.018014157
41	0x3e23277e	0.15933034
42	0xbd802136	-0.062563345
43	0xbcc78972	-0.024357531
44	0x3c1d5f75	0.009605278
45	0x3d84832b	0.06470331
46	0x3d8f8912	0.07008566
47	0xbda8a274	-0.082341105
48	0x3ddd6f85	0.10812286
49	0xbda9a980	-0.08284283
50	0x3d0f203d	0.034942854
51	0xbc052517	-0.008126519
52	0xbdfa0194	-0.12207332
53	0x3c39c3e1	0.011338205
54	0xbcf0aa41	-0.029378058
55	0x3cefa531	0.029253574
56	0x3c9347c3	0.017978555
57	0xbcf2dbd8	-0.029645845
58	0x3d4e769f	0.050406095
59	0xbe015513	-0.1263011
60	0x3dc1031c	0.09424421
61	0xbe03313e	-0.12811753
62	0x3c512448	0.012764998
63	0xbd3beaaa	-0.04587809
64	0x3a9b2a00	0.0011838078
65	0x3f68ea4f	0.90982527
66	0xbda4d00e	-0.08047496
67	0xbd81a160	-0.06329608
68	0xbd848345	-0.0647035
69	0xbe273c66	-0.16331634
70	0xbb73de72	-0.0037211445
71	0xbc3f8f7c	-0.011691924
72	0xbd1559d9	-0.03646264
73	0xbc0ce21e	-0.008598832
74	0x3e542a26	0.20719203
75	0xbde21ae1	-0.11040283
76	0xbcb682b2	-0.022279117
77	0xba9dffc7	-0.0012054377
78	0xbce4cd4a	-0.02792992
79	0xbd86f0f2	-0.065889254
80	0x3c31405a	0.010818565
81	0xbd0c3785	-0.034232635
82	0xbe687600	-0.22701263
83	0xbf0e0c42	-0.55487454
84	0x3e39f1f1	0.181587
85	0x3e0e1fee	0.13879368
86	0xbc879e10	-0.016554862
87	0xbc55d17a	-0.013050431
88	0x3b6136db	0.0034364972
89	0x3cb4a51c	0.022051387
90	0xbd558bda	-0.052135326
91	0xbbcf3b76	-0.006324227
92	0x3db621fc	0.08893201
93	0x3e33d838	0.1756295
94	0x3e20c989	0.1570188
95	0x3c7c8670	0.015412912
96	0xbe814118	-0.25244975
97	0x3bd708b0	0.006562315
98	0x3ec04c09	0.3755801
99	0x3c5fbb93	0.013655561
100	0x3e6aa44c	0.22914237
101	0x3e26e505	0.16298302
102	0xbe39315d	-0.18085237
103	0x3dd34d08	0.10317427
104	0xbe8cb99b	-0.27485356
105	0x3d7e2bf2	0.06205363
106	0x3c8b29a3	0.016987627
107	0xbc18ab1b	-0.0093181385
108	0xbdb413ab	-0.08792814
109	0x3d63b0d4	0.05558856
110	0x3d687764	0.056754485
111	0x3cc9ebf4	0.024648644
112	0xbb943680	-0.0045230985
113	0xbda59994	-0.08085933
114	0x3dd94d25	0.10610417
115	0x3ed7ece0	0.4217291
116	0x3e044335	0.12916262
117	0x3d09ecfc	0.03367327
118	0x3ef4098f	0.47663543
119	0xbc048777	-0.008088938
120	0xbe19e336	-0.1502808
121	0xbd1416aa	-0.036154427
122	0xbaa6344f	-0.0012680384
123	0x3d44b96f	0.048028406
124	0x3de69803	0.11259463
125	0x3d10f08d	0.035385657
126	0xbd3813b0	-0.04494065
127	0xbe2ac1b6	-0.16675457
128	0xbd0fdce5	-0.03512277
129	0xbd5853e5	-0.052814383
130	0x3c798188	0.015228637
131	0xbdd93248	-0.106052935
132	0x3d0243f1	0.031803075
133	0xbaa14c9c	-0.0012306157
134	0x3e08c1d6	0.13355193
135	0x3d93adf4	0.07210913
136	0xbd5705e4	-0.052495852
137	0x3e11d4d9	0.14241351
138	0x3dd1bef8	0.102415025
139	0xbd418729	-0.04724804
140	0x3cc4ffb8	0.024047717
141	0x3a3afd97	0.0007133125
142	0x39b21c49	0.0003397188
143	0x3c580244	0.013184134
144	0x3d26b955	0.04070409
145	0xbcda4c5e	-0.026647743
146	0xba0d1776	-0.0005382219
147	0x3c1ffd94	0.009765048
148	0x3e10f4c9	0.14155878
149	0x3e49e116	0.1971477
150	0xbe05ac60	-0.13054037
151	0xbd7027a4	-0.058631554
152	0xbc92972a	-0.017894346
153	0xbca26ba1	-0.019826712
154	0xbb26bb65	-0.0025441286
155	0x3c0a3a23	0.008436712
156	0x3cdc9593	0.026926791
157	0x3d58e733	0.052954864
158	0x3ddeb511	0.108743794
159	0x3bb7fcf9	0.0056148735
160	0x3c32b1a1	0.010906608
161	0x3d2fa552	0.04288227
162	0xbd8239e3	-0.06358697
163	0x3b10a1e0	0.0022069141
164	0x3f92b53e	1.1461561
165	0xbc0b2e0e	-0.008494867
166	0x3e1e636b	0.15467612
167	0xbd8581fd	-0.06518934
168	0x3c0330e2	0.00800726
169	0xbe63c861	-0.22244407
170	0xbe8c10ee	-0.27356666
171	0x3c4202ea	0.011841515
172	0xbd98ac21	-0.07454706
173	0x3ec03099	0.37537077
174	0xbcea6f1c	-0.028617434
175	0xbd3ea429	-0.046543274
176	0xbd965326	-0.07340078
177	0x399be8b5	0.00029737284
178	0xbc55d843	-0.013052049
179	0x3cfc5409	0.03080179
180	0x3e08e723	0.13369422
181	0x3e700910	0.23440957
182	0xbdd25faa	-0.10272153
183	0x3e4167c6	0.18887243
184	0x3ee283e3	0.44241247
185	0xbd532f79	-0.051558945
186	0xbd89c0a7	-0.06726199
187	0xbd04b833	-0.03240223
188	0xbdf7e422	-0.1210406
189	0x3d03730b	0.032092135
190	0x3e191515	0.14949448
191	0xbe0e2f29	-0.13885178
192	0x3e0e8e35	0.13921435
193	0x3dbbb4a5	0.091653146
194	0x3d94411f	0.07238983
195	0xbe0a815b	-0.13525908
196	0xbafb0740	-0.0019151941
197	0xbdb11e7c	-0.086483926
198	0xbdd7bbc6	-0.10533862
199	0x3e1e3aa3	0.15452056
200	0x3d0180fa	0.031617142
201	0xbdf82733	-0.12116852
202	0x3ddab9c1	0.10679961
203	0xbe1ee4ba	-0.1551694
204	0xbdd8d933	-0.105883025
205	0xbc7d6d9a	-0.015468026
206	0xbd08c70a	-0.033392943
207	0xbdb53f8c	-0.08850011
208	0x3cb99615	0.022654573
209	0x3bfa2e2f	0.0076349
210	0xbd859960	-0.065233946
211	0x3e636c8b	0.22209375
212	0xbe3e34e9	-0.18574871
213	0xbca1af2f	-0.019736854
214	0xbeadfc25	-0.33981434
215	0x3ea01273	0.31264076
216	0x3d5ab6a0	0.05339682
217	0x3c1335fd	0.00898504
218	0x3ce9ca9d	0.028538996
219	0x3cdc87c1	0.026920201
220	0x3d1d6455	0.038425762
221	0xbbe74ee4	-0.007058965
222	0xbd5db38e	-0.054126315
223	0xbd0ed847	-0.034874227
224	0xbe136c2a	-0.1439673
225	0x3e22e8e6	0.15909156
226	0x3d1eac2d	0.03873842
227	0x3cf0509c	0.029335313
228	0xbe46eff8	-0.19427478
229	0xbd1c5400	-0.038166046
230	0x3d301e24	0.042997494
231	0xbe5720ad	-0.21008559
232	0x3cf20130	0.029541582
233	0xbe319270	-0.17341018
234	0x3e273381	0.16328241
235	0x3dd73a43	0.105091594
236	0x3e0c823f	0.1372156
237	0x3e5167bd	0.2044973
238	0x3e0758c4	0.13217455
239	0xbda094c5	-0.078408755
240	0x3e05de27	0.13073026
241	0xbd1142ae	-0.03546398
242	0x3c1bab31	0.009501264
243	0x3d2b4429	0.04181305
244	0xbd2f2c6f	-0.042766985
245	0xbd8cd6f1	-0.06876934
246	0x3c5fa238	0.013649516
247	0xbe526cf0	-0.20549369
248	0xbe844be5	-0.25839153
249	0x3d8e9b96	0.069632694
250	0x3e9ce673	0.3064457
251	0x3d47f534	0.04881783
252	0xbabddd1a	-0.0014485449
253	0xbc791b1d	-0.015204218
254	0x3d82b50d	0.06382189
255	0x3c2f2eb9	0.010692292

fc1.bias f4 [128]
0	0x3d543f15	0.051817972
1	0xbddfdd6a	-0.10930903
2	0xbebcbed2	-0.36864334
3	0xbcdc43cb	-0.026887795
4	0xbe0c4876	-0.13699517
5	0xbe5d526a	-0.2161347
6	0xbce48efe	-0.027900215
7	0xbd9c39df	-0.076282255
8	0xbcf07d3a	-0.029356588
9	0xbe07cebb	-0.13262455
10	0xbed93504	-0.4242326
11	0x3db6fd22	0.08935
12	0x3d2bfb0b	0.04198746
13	0xbe7a55ed	-0.2444684
14	0xbe4617d8	-0.19345033
15	0x3c90572a	0.017619688
16	0xbe559e3d	-0.20861144
17	0xbe191a1b	-0.14951365
18	0xbea45082	-0.32092673
19	0xbd4b7708	-0.049674064
20	0xbe2a602a	-0.16638246
21	0xbdd0f137	-0.10202258
22	0xbe8f431c	-0.27980888
23	0xbe5de9e5	-0.21671255
24	0xbe5fe5eb	-0.2186505
25	0xbe015a0e	-0.1263201
26	0xbe04ead2	-0.12980202
27	0xbec096d8	-0.37615085
28	0xbdf9b432	-0.12192573
29	0xbe458cbb	-0.19291966
30	0xbe939c97	-0.28830406
31	0xbdaa8041	-0.08325244
32	0xbe9044ed	-0.28177586
33	0x3ca8943c	0.020578496
34	0x3b9c5c42	0.00477174
35	0x3d9b859a	0.07593842
36	0xbd94d35a	-0.072668746
37	0xbe55d352	-0.20881394
38	0x3e743261	0.23847343
39	0xbea4ba99	-0.32173613
40	0xbea076f7	-0.31340763
41	0x3dd2c37e	0.102911934
42	0x3e99249e	0.2991075
43	0xbedc4272	-0.43019444
44	0x3da46733	0.08027496
45	0xbdea762d	-0.114483215
46	0xbe188b93	-0.14896993
47	0xbda8ead2	-0.082479134
48	0xbdbaa700	-0.09113884
49	0xbdf2e3bf	-0.11859845
50	0xbddec423	-0.10877254
51	0xbe44975d	-0.19198366
52	0xbd4aa0e1	-0.049469832
53	0xbe205e31	-0.15660931
54	0x3daa734c	0.083227724
55	0xbd97ab18	-0.074056804
56	0x3d1d781d	0.038444627
57	0xbecb8dd7	-0.39756653
58	0x3d17896d	0.036996294
59	0x3e4a8bf2	0.19779947
60	0x3da88992	0.082293645
61	0xbe0f8761	-0.14016487
62	0x3e14db4a	0.14536777
63	0xbea080f0	-0.31348372
64	0x3d559076	0.05213972
65	0x3e21ddcf	0.1580727
66	0xbe103f5c	-0.1408667
67	0xbd1c00cf	-0.03808671
68	0xbe6b5f87	-0.2298566
69	0xbe3cd93e	-0.18442246
70	0xbd608601	-0.054815296
71	0xbe0630c8	-0.13104546
72	0xbe7fd1f2	-0.24982432
73	0x3e1e2657	0.15444313
74	0x3e23a708	0.15981686
75	0xbe8537a0	-0.26019
76	0x3d431edc	0.04763685
77	0xbe24dfbb	-0.16100971
78	0x3c951244	0.018197186
79	0x3d1935be	0.03740477
80	0xbe3ab49b	-0.18232958
81	0xbe90ef01	-0.28307346
82	0xbe717b8c	-0.23582286
83	0xbdbf9b4d	-0.09355793
84	0xbc51b1c9	-0.012798735
85	0x3dffa2b4	0.12482205
86	0xbb5a7765	-0.0033335325
87	0x3d26c5fc	0.040716156
88	0xbb4c2a37	-0.0031153092
89	0x3cc29458	0.023752376
90	0xbcc41c2a	-0.02393921
91	0x3bd812a1	0.0065940176
92	0xbdd4578b	-0.1036826
93	0xbd049958	-0.032372802
94	0x3c249e84	0.010047559
95	0xbd9853ce	-0.074378595
96	0xbe6d6679	-0.23183621
97	0x3e3e3391	0.18574359
98	0xbd719713	-0.058981966
99	0xbe133454	-0.1437543
100	0x3c7873a2	0.015164288
101	0xbf03996c	-0.5140598
102	0x3c3b4eec	0.011432391
103	0xbb1a20e4	-0.002351814
104	0xbe052b1b	-0.13004725
105	0x3e3c471b	0.183865
106	0x3e245bd1	0.1605065
107	0xbe3fa27b	-0.18714325
108	0x3d590b1b	0.052989107
109	0x3df9bb34	0.12193909
110	0xbdf69aa9	-0.12041218
111	0xbe3cbd70	-0.1843164
112	0xbd75b2e2	-0.05998505
113	0xbe8bdf78	-0.2731893
114	0x3d9af438	0.07566112
115	0xbed68326	-0.41896933
116	0xbdc51d02	-0.096246734
117	0xbe90b580	-0.28263474
118	0xbe1b06fe	-0.15139386
119	0xbe0ef635	-0.13961108
120	0xbbdb1ecb	-0.0066870204
121	0xbdc2a452	-0.09503998
122	0xbd9e27b9	-0.0772242
123	0xbd853e92	-0.06506075
124	0xbd9aa8df	-0.07551741
125	0xbdd250b4	-0.10269299
126	0xbdf59113	-0.11990561
127	0xbe05a83a	-0.13052455

fc2.weight f4 [128, 128]
0	0xbdc321f9	-0.09527964
1	0xbe798128	-0.24365675
2	0x3e822af1	0.25423387
3	0x3e30b9c0	0.17258358
4	0xbe3ffd8e	-0.18749067
5	0x3ea065ce	0.3132767
6	0x3d2789d4	0.040902928
7	0x3e4f473e	0.2024202
8	0xbda64b15	-0.081197895
9	0x3cc11537	0.023569686
10	0x3e334d09	0.17509855
11	0xbe26ce6e	-0.16289684
12	0x3e16164b	0.14656942
13	0x3e00284a	0.12515369
14	0x3dec8e4c	0.115505785
15	0xbd835940	-0.064135075
16	0x3e22de69	0.15905155
17	0x3e85455b	0.26029477
18	0xbe236edd	-0.1596026
19	0x3e311e71	0.17296769
20	0xbdd229a5	-0.10261849
21	0xbd3ca07c	-0.046051487
22	0x3dde7e59	0.10863943
23	0x3e21e4e0	0.15809965
24	0xbe81c84a	-0.2534812
25	0x3e2cd283	0.16877179
26	0x3e67c5c0	0.2263403
27	0xbdbdd81d	-0.09269736
28	0x3e10638c	0.14100474
29	0xbe031608	-0.12801373
30	0xbe8a0fbc	-0.2696513
31	0x3dc55482	0.09635259
32	0xbc2e91c7	-0.010654873
33	0x3e88483b	0.26617607
34	0x3e06f6f6	0.13180146
35	0x3e32cdfa	0.17461386
36	0xbca851f8	-0.020546898
37	0xbe0aff0d	-0.13573857
38	0xbddee215	-0.108829655
39	0x3e42712f	0.18988489
40	0xbe35c531	-0.17751004
41	0xbccc9d74	-0.024977423
42	0x3eb2c05a	0.34912378
43	0x3d42119c	0.047380075
44	0xba5d5152	-0.00084425986
45	0x3df4e66f	0.11958014
46	0x3db6f9be	0.08934353
47	0xbe467fe7	-0.19384728
48	0x3d391470	0.045185506
49	0x3b9f7bbf	0.0048670466
50	0xbea16b64	-0.31527245
51	0x3e35b030	0.17742991
52	0x3cf94ee4	0.030433126
53	0xbe92921b	-0.28627095
54	0xbdafe745	-0.08589033
55	0x3e19ed30	0.15031886
56	0xbdcc477d	-0.09974573
57	0x3dfe7bc9	0.12425954
58	0xbc621dfa	-0.013801092
59	0x3e695c46	0.22789106
60	0x3e518210	0.20459771
61	0x39a03222	0.0003055493
62	0x3eabe015	0.335694
63	0x3d95b1b8	0.07309288
64	0xbdfb252e	-0.12262951
65	0xbddcd75d	-0.10783265
66	0xbe031b9e	-0.12803504
67	0x3e1256de	0.1429095
68	0xbe70bb46	-0.23508939
69	0x3d8e8d94	0.06960598
70	0x3e8b3a4b	0.27192912
71	0x3ef4417b	0.47706208
72	0xbdfae53f	-0.122507565
73	0xbd4f9d60	-0.050687194
74	0xbd840d3d	-0.064478375
75	0xbe893528	-0.26798368
76	0x3e65a1ce	0.22425005
77	0x3e673a5e	0.22580859
78	0xbe43d878	-0.19125545
79	0x3e2aef63	0.16692881
80	0xbe5a734c	-0.21333045
81	0x3dbd778e	0.09251319
82	0x3e108c20	0.14115953
83	0x3e03c521	0.12868167
84	0xbdf84610	-0.12122738
85	0xbd2fd81c	-0.042930707
86	0x3e1891d5	0.1489938
87	0xbbeabdcf	-0.00716374
88	0x3e3a9353	0.18220262
89	0x3c802201	0.015641214
90	0xbedfa752	-0.43682343
91	0x3e3d62ee	0.1849477
92	0x3d9573f0	0.07297504
93	0x3e90d4fc	0.28287494
94	0x3db55abc	0.08855197
95	0x3dcabe28	0.09899551
96	0xbe43de88	-0.19127858
97	0x3dbc2cb2	0.091882125
98	0x3e5a7148	0.21332276
99	0x3db6774e	0.08909474
100	0x3ca5ca88	0.020238176
101	0x3ddba43e	0.10724686
102	0xbe16cae8	-0.1472584
103	0xbd157408	-0.03648761
104	0xbd677af4	-0.05651374
105	0x3e36870b	0.17824952
106	0xbeb6df13	-0.35717067
107	0xbdad3fa6	-0.084594056
108	0xbe79f711	-0.24410655
109	0xbd0a85fd	-0.033819187
110	0xbe5aec36	-0.2137917
111	0x3dc01050	0.09378111
112	0xbda9c462	-0.0828941
113	0x3ea771d9	0.32704046
114	0x3ea557f0	0.32293653
115	0xbf2c8d30	-0.67402935
116	0xbd82f7cb	-0.06394919
117	0x3dcffacf	0.1015526
118	0x3e3a498f	0.18192123
119	0x3d091e2b	0.033476036
120	0x3e044c1b	0.12919657
121	0xbe8658d7	-0.26239654
122	0x3e401675	0.18758567
123	0xbe7745a5	-0.24147661
124	0x3e0a3769	0.134977
125	0x3e1f5573	0.1555994
126	0x3d5dcc93	0.054150175
127	0x3e7ff1bd	0.2499456
128	0x3e210ae0	0.15726805
129	0xbe4b1ff6	-0.19836411
130	0xbe5b9ab3	-0.21445732
131	0xbe1d5f98	-0.15368497
132	0xbe47d9e0	-0.19516706
133	0xbd7fafcf	-0.062423524
134	0x3e08ab97	0.13346706
135	0x3d7cc3ba	0.061710097
136	0xbd8a592c	-0.067552894
137	0x3db03b8d	0.086051084
138	0xbde6e8e1	-0.11274887
139	0xbe5c1935	-0.2149399
140	0x3dce2571	0.10065735
141	0xbeb11f0d	-0.34594002
142	0xbe9a8e2b	-0.3018659
143	0x3dfe8e51	0.124294885
144	0xbe373eba	-0.17895022
145	0x3e05151d	0.12996335
146	0xbdb4668f	-0.08808624
147	0x3c76a62f	0.01505427
148	0x3dc17df7	0.09447854
149	0xbe9f7e2f	-0.31150958
150	0xbc8e48da	-0.017368723
151	0xbd150186	-0.036378406
152	0xbdc7528d	-0.09732542
153	0xbddb0235	-0.1069378
154	0xbea3c21d	-0.31984034
155	0xbe1887cf	-0.14895557
156	0xbddb731a	-0.10715313
157	0x3c9406a5	0.018069575
158	0x3b924d61	0.0044647907
159	0xbda9b53b	-0.0828652
160	0xbe105502	-0.14094928
161	0xbdf1abeb	-0.11800369
162	0xbd6e9e74	-0.05825658
163	0xbd6d7ca8	-0.05798021
164	0xbed1c149	-0.40967777
165	0x3e23d690	0.15999818
166	0x3e2af8f3	0.16696529
167	0x3e97351e	0.29532713
168	0xbd8fc0c5	-0.0701919
169	0x3dd0e06d	0.10199056
170	0xbea018e8	-0.31269002
171	0xbe706aae	-0.23478195
172	0x3e9293fe	0.28628534
173	0xbe2576be	-0.16158578
174	0x3d4dfaf1	0.050288144
175	0xbe82260d	-0.25419655
176	0xbe225c16	-0.1585544
177	0x3d244931	0.040108863
178	0xbdcb6b83	-0.099326156
179	0xbecc5957	-0.3991191
180	0x3ea2b2e8	0.3177712
181	0x3e439166	0.19098434
182	0x3e8423ed	0.2580866
183	0xbd0e6db9	-0.03477261
184	0x3dfd1b5f	0.12358736
185	0x3dedcee1	0.11611725
186	0x3d2439e9	0.04009429
187	0x3d5a582b	0.05330674
188	0x3e8cd2a2	0.2750445
189	0xbd6b65b6	-0.057470046
190	0xbd2ee20f	-0.042696055
191	0xbe513e86	-0.20434007
192	0xbe0a43e8	-0.13502467
193	0xbdc6804a	-0.09692438
194	0x3e8bd5ac	0.27311456
195	0x3e429dc6	0.19005498
196	0x3dffa311	0.12482274
197	0x3ccf7d50	0.025328308
198	0x3d2d05eb	0.042241972
199	0x3e12db74	0.14341527
200	0xbe247205	-0.1605912
201	0xbe4087dc	-0.18801826
202	0xbe53f602	-0.20699313
203	0x3cb38f5c	0.021918945
204	0xbe2e296b	-0.17007987
205	0x3cc8c600	0.024508476
206	0x3e8527bd	0.2600688
207	0xbe173bf3	-0.14768963
208	0x3e97797b	0.2958487
209	0xbcb78690	-0.022403032
210	0x3d6cb866	0.057793044
211	0x3d350055	0.04418977
212	0xbe2d5365	-0.16926344
213	0x3e39062e	0.18068764
214	0xbe971fca	-0.2951644
215	0xbc63c276	-0.013901344
216	0xb9fb4c1d	-0.0004793116
217	0x3a4469bb	0.00074925617
218	0xbe53a8f0	-0.20669913
219	0xbe2c686e	-0.16836712
220	0xbe3ea50d	-0.1861765
221	0x3e0f71e8	0.14008296
222	0xbdb39782	-0.08769132
223	0x3e2aed1d	0.16692014
224	0xbe4ce81f	-0.20010422
225	0x3d037a76	0.03209921
226	0xbbf5df80	-0.00750345
227	0xbec88097	-0.39160606
228	0x3d93a96b	0.07210048
229	0x3c06ea55	0.00823458
230	0x3ea11ce2	0.31467348
231	0x3e9fd197	0.31214592
232	0xbe52fc6a	-0.20604101
233	0x3d46dac3	0.04854847
234	0xbeace7b9	-0.3377054
235	0xbea43b79	-0.32076624
236	0xbd2bb329	-0.041918907
237	0x3e5bb15a	0.21454373
238	0xbe7fa25b	-0.24964277
239	0xbe7c8cd0	-0.2466309
240	0x3e22f888	0.1591512
241	0xbd035483	-0.03206302
242	0x3e18c24e	0.14917871
243	0x3d5ac956	0.053414665
244	0x3dc70247	0.09717231
245	0x3e17d0fb	0.14825813
246	0xbcae36f6	-0.021266442
247	0xbc69ba32	-0.014265584
248	0x3eb7cb61	0.35897353
249	0xbe7516db	-0.239345
250	0xbe8ad584	-0.27116024
251	0xbed5b8c3	-0.41742525
252	0x3d48e55a	0.04904685
253	0x3e370122	0.17871526
254	0x3c8c8253	0.017151987
255	0xbc58fe16	-0.013244173

fc2.bias f4 [128]
0	0xbe582b53	-0.21110277
1	0x3dd57f21	0.104246385
2	0xbdc093f4	-0.0940322
3	0xbe667b91	-0.22508074
4	0xbde0c1a3	-0.10974433
5	0xbe912810	-0.28350878
6	0xbd3a6a48	-0.045511514
7	0xbecb9319	-0.39760664
8	0xbe05d127	-0.13068067
9	0xbdce9b7e	-0.100882515
10	0xbd0e78d6	-0.034783207
11	0xbdaef745	-0.08543257
12	0xbdb775d7	-0.08958023
13	0xbda05745	-0.07829145
14	0xbea2e49e	-0.31815046
15	0x3dd2fad0	0.10301745
16	0xbb973044	-0.004613908
17	0x3d042c63	0.032268893
18	0x3e446431	0.19178845
19	0xb9d90e15	-0.00041399957
20	0xbde1ddc6	-0.11028628
21	0xbe6d8ca6	-0.23198184
22	0xbe891e26	-0.26780814
23	0xbd3ea455	-0.046543438
24	0xbd0cf751	-0.034415547
25	0xbd920493	-0.07129779
26	0xbeb0582e	-0.34442276
27	0xbe74d910	-0.23910928
28	0xbe9b9b4a	-0.30391914
29	0xbdf757fc	-0.120773286
30	0xbd2fd984	-0.04293205
31	0xbe48d87b	-0.19613831
32	0x3d824dcf	0.06362497
33	0xbe450e7c	-0.19243807
34	0x3e11cbab	0.1423785
35	0x3ced28d7	0.028950138
36	0xbc208f20	-0.009799749
37	0xbd5f1b61	-0.05446947
38	0xbdd8eaa8	-0.10591632
39	0x3d1a6770	0.037696302
40	0xbe727c1d	-0.23680158
41	0x3ddccd23	0.10781314
42	0xbe49f4be	-0.19722268
43	0x3dbe8505	0.09302715
44	0xbcde6a5a	-0.027150322
45	0xbd4d5cdd	-0.05013739
46	0xbe7ad79b	-0.2449631
47	0xbe6d6d7a	-0.23186293
48	0xbe3741ad	-0.17896147
49	0x3e0e4568	0.13893664
50	0x3e094094	0.13403541
51	0xbe0eb9ef	-0.13938116
52	0xbcb427b3	-0.021991586
53	0xbe6f7fee	-0.23388645
54	0x3cd5be1a	0.026091624
55	0x3e2ae20e	0.16687796
56	0x3c059840	0.008153975
57	0x3e0fcf1e	0.14043853
58	0xbdd36c0a	-0.10323341
59	0xbc2d9646	-0.01059491
60	0x3dc03b3f	0.093863
61	0xbdd1353f	-0.10215234
62	0x3e3049d4	0.17215663
63	0xbe7be392	-0.2459853
64	0xbe899ecc	-0.26878965
65	0x3d6b89b6	0.05750438
66	0xbea9888e	-0.33111995
67	0xbdc8079f	-0.097670786
68	0x3e0251ac	0.12726468
69	0x3b91cac6	0.0044492213
70	0x3d1200d6	0.03564533
71	0xbd9e7649	-0.07737405
72	0xbe8d8a36	-0.2764451
73	0x3e3a72be	0.18207833
74	0xbe964061	-0.29345992
75	0xbdcad1e3	-0.09903314
76	0x3da9e97d	0.082964875
77	0xbd8b0860	-0.06788707
78	0x3e329ab8	0.17441833
79	0xbe555ce7	-0.2083622
80	0x3d3839a0	0.04497683
81	0x3de6911f	0.112581484
82	0x3ba4e646	0.0050323335
83	0x3d58ea4a	0.05295781
84	0xbe815864	-0.2526275
85	0xbd4fc8e7	-0.050728705
86	0xbdc67b16	-0.096914455
87	0xbc65863f	-0.014009058
88	0x3d9ecf81	0.07754422
89	0xbe725846	-0.23666486
90	0x3d2b5af9	0.041834805
91	0xbe386f13	-0.18011121
92	0xbe0c9f5b	-0.13732664
93	0xbcea515c	-0.028603248
94	0x3cb26a73	0.021779275
95	0x3d872c9a	0.06600304
96	0xbdc32cfe	-0.09530066
97	0xbdb67c27	-0.08910399
98	0x3e199935	0.1499985
99	0xbe6b4b8f	-0.22978042
100	0xbc50336c	-0.012707572
101	0x3bf8d4a8	0.00759371
102	0xbd8f7c7f	-0.070061676
103	0xbdba937f	-0.09110164
104	0xbe121a98	-0.14267957
105	0xbe24c936	-0.16092381
106	0x3da510dd	0.08059857
107	0xbe3b5797	-0.18295132
108	0xbe27da2b	-0.16391818
109	0xbd9ba479	-0.0759973
110	0xbd5f08fd	-0.05445193
111	0xbdcde43e	-0.10053299
112	0xbe04f8b4	-0.12985498
113	0xbe923cee	-0.2856211
114	0xbd0126a2	-0.031530984
115	0xbe465e59	-0.19371928
116	0x3d952c21	0.072838075
117	0xbe7bee37	-0.2460259
118	0xbd20698f	-0.03916317
119	0xbeba48ca	-0.3638366
120	0xbe28931a	-0.16462365
121	0xbe519432	-0.20466688
122	0x3d20a9fc	0.03922461
123	0xbc5b864d	-0.013398719
124	0xbe02abae	-0.12760803
125	0xbd17cac1	-0.037058596
126	0x3df6e839	0.12056012
127	0xbe0e0315	-0.13868363

fc3.weight f4 [4, 128]
0	0xbe884df2	-0.26621968
1	0x3dfaae2c	0.12240252
2	0xbe9a09cb	-0.30085596
3	0xbe5520a0	-0.20813227
4	0xbe4ba343	-0.19886498
5	0x3e85cabe	0.26131243
6	0xbcea0875	-0.028568486
7	0xbe57b35b	-0.21064512
8	0xbd9aa1eb	-0.07550415
9	0xbf229442	-0.63507473
10	0x3ddfdbed	0.109306194
11	0xbf2953b5	-0.6614335
12	0xbe4bef13	-0.19915418
13	0xbe49bd64	-0.19701153
14	0x3e44f4f0	0.19234061
15	0x3e2634a2	0.16231015
16	0x3dac725d	0.084202506
17	0x3f142725	0.5787223
18	0x3db8d7fd	0.090255715
19	0x3ce557b6	0.027995925
20	0xbe39dbc2	-0.18150237
21	0x3f226f7b	0.63451356
22	0xbe9d3de3	-0.30711278
23	0xbe743c4f	-0.23851131
24	0x3d7ebee2	0.06219376
25	0xbcb5848a	-0.022157926
26	0x3e0a86f0	0.13528037
27	0xbe404fae	-0.18780395
28	0xbe5b774e	-0.2143223
29	0xbe76d28c	-0.24103755
30	0xbef0e970	-0.470531
31	0xbe9e1c39	-0.30880907
32	0x3ee96f0a	0.4559253
33	0x3e7eb0ff	0.24872206
34	0xbe5dfb7d	-0.21677966
35	0x3d42e33f	0.04758
36	0xbf0c8f12	-0.5490581
37	0xbeb425d5	-0.35185114
38	0x3d97a468	0.07404405
39	0x3f3cf99c	0.73818374
40	0xbdcf64e7	-0.101266675
41	0x3dc45850	0.09587157
42	0xbd90a1ab	-0.07062086
43	0x3ec2c83e	0.38043398
44	0x3eb94d51	0.361918
45	0xbeebe740	-0.46074867
46	0xbdcf6505	-0.1012669
47	0xbe0c1326	-0.1367918
48	0xbc81135a	-0.015756298
49	0x3eecacaa	0.46225482
50	0x3f10ac41	0.5651284
51	0xbe87c1f6	-0.26515168
52	0x3c493a85	0.012282019
53	0x3ee6d643	0.45085344
54	0x3ea2fda3	0.31834134
55	0xbcbee40d	-0.023302102
56	0xbdca4ab3	-0.09877529
57	0xbea1a5f2	-0.3157192
58	0x3dd9099a	0.105975345
59	0x3f39ca85	0.72574645
60	0xbddadb83	-0.106864
61	0x3eb99e4a	0.36253577
62	0x3f1be738	0.60899687
63	0x3eea0a7b	0.4571112
64	0xbeb8aa59	-0.36067465
65	0x3e172457	0.14759956
66	0x3dd4c850	0.10389769
67	0xbca9f473	-0.020746445
68	0xbbc0d5d4	-0.0058848653
69	0xbe101da7	-0.14073811
70	0x3cb5eb21	0.022206845
71	0xbee5a4fd	-0.4485244
72	0x3d470ce2	0.04859627
73	0xbf10e93f	-0.56605905
74	0x3de0e239	0.109806485
75	0xbef52126	-0.47876853
76	0x3f2b91fd	0.67019635
77	0xbda87919	-0.082262225
78	0xbf0044c3	-0.5010492
79	0xbf4235e2	-0.7586347
80	0xbec58130	-0.38575125
81	0x3ed23e55	0.4106318
82	0x3f17fc66	0.59369504
83	0x3f2ad20b	0.6672675
84	0xbe33e971	-0.1756952
85	0xbeb1ed0b	-0.34751162
86	0x3f26f2bf	0.6521415
87	0x3f3e81c6	0.7441677
88	0x3ebe848a	0.37210494
89	0x3f248e1a	0.6427933
90	0xbea8e174	-0.32984507
91	0x3eb69fdb	0.35668835
92	0xbcc6ce07	-0.024268163
93	0x3c5f340d	0.01362325
94	0xbe068468	-0.13136446
95	0xbea892fa	-0.32924634
96	0x3e9d826a	0.3076356
97	0xbd89c323	-0.067266725
98	0xbe282de6	-0.16423759
99	0xbe982656	-0.29716748
100	0xbeb6e0d1	-0.35718396
101	0xbef05202	-0.46937567
102	0xbe6bd720	-0.23031282
103	0x3e4ac677	0.19802271
104	0x3e77e72a	0.24209276
105	0xbdea78ce	-0.11448823
106	0xbf4299c4	-0.7601588
107	0x3dc99a19	0.09843845
108	0x3ea7a55a	0.3274334
109	0x3ebeb940	0.3725071
110	0xbea6a359	-0.325465
111	0x3f014086	0.5048908
112	0xbeb7ae01	-0.35874942
113	0xbe063557	-0.13106285
114	0xbe31694f	-0.17325328
115	0x3f1b0ae7	0.6056351
116	0x3e358375	0.17725928
117	0x3e2a0520	0.16603518
118	0x3f174927	0.59095997
119	0xbf0dc18e	-0.55373466
120	0x3e818031	0.25293115
121	0x3e4cff20	0.20019197
122	0xbe50007f	-0.20312689
123	0x3e2365e3	0.15956835
124	0xbc0bb77c	-0.008527633
125	0xbeddc36d	-0.4331316
126	0x3e981e1b	0.2971047
127	0xbeafd682	-0.34343344
128	0xbe0b411d	-0.13599057
129	0xbe58d03e	-0.21173188
130	0xbdb6fe2b	-0.089351974
131	0x3ee2f5f9	0.44328287
132	0xbeba8b74	-0.3643452
133	0x3f1c0b1e	0.60954463
134	0x3ecc6994	0.399243
135	0xbe4eff5e	-0.20214602
136	0x3ca596ee	0.02021357
137	0xbf067156	-0.52516687
138	0x3e155d1b	0.14586298
139	0xbee3dbed	-0.44503728
140	0x3e8a1eb5	0.26976553
141	0x3f4687fc	0.77551246
142	0xbef7fecb	-0.4843658
143	0x3c771c64	0.015082452
144	0x3ca84619	0.020541238
145	0x3dd43822	0.10362269
146	0xbe90e428	-0.2829907
147	0x3d39919f	0.04530489
148	0xbf220e61	-0.6330319
149	0x3dd2a14c	0.10284671
150	0xbf0a44c7	-0.54011196
151	0xbe90f65f	-0.28312966
152	0x3f53cebb	0.8273732
153	0x3f09bba3	0.53801936
154	0xbe6a839b	-0.22901766
155	0xbee00d93	-0.43760356
156	0xbe8b1b3d	-0.2716922
157	0x3f2fbefb	0.6865079
158	0x3d278a1b	0.040903192
159	0xbeecd545	-0.46256462
160	0x3eab5e3d	0.33470336
161	0xbee1c43c	-0.44095027
162	0xbcaa7055	-0.020805517
163	0xbcfd48eb	-0.030918559
164	0xbea99f4a	-0.3312934
165	0xbeb72528	-0.35770535
166	0x3dba789b	0.09105035
167	0x3f086ce0	0.5329113
168	0x3e0f9c33	0.14024429
169	0x3a98891b	0.001163754
170	0xbce61281	-0.028084995
171	0x3f253a62	0.6454221
172	0x3d8fc376	0.07019703
173	0xbb944839	-0.004525211
174	0xbf05cb59	-0.5226341
175	0x3eb1e60e	0.3474583
176	0xbf1b4116	-0.6064619
177	0xbe0f7253	-0.14008455
178	0xbe9f6c4f	-0.3113732
179	0xbe9ba2e4	-0.30397713
180	0x3f33b570	0.70198727
181	0xbdbd82bc	-0.09253451
182	0xbd3569ca	-0.04429034
183	0xbe6dad2c	-0.23210591
184	0x3eeb38a3	0.45941648
185	0x3ea813c8	0.32827592
186	0x3f1b145c	0.6057794
187	0xbe86d875	-0.2633702
188	0x3b9b1be3	0.004733549
189	0x3cf656a5	0.030070612
190	0x3da76f07	0.08175474
191	0x3e22c12e	0.15894005
192	0xbe25dd30	-0.16197658
193	0x3eeabdc7	0.45847914
194	0x3ef237bc	0.47308147
195	0xbe548090	-0.20752168
196	0x3e857adb	0.26070294
197	0xbe893a00	-0.26802063
198	0xbd020dc7	-0.03175142
199	0x3ee5b668	0.44865727
200	0xbf096e28	-0.5368371
201	0xbe03ead5	-0.1288255
202	0x3eefc73b	0.46831688
203	0x3f0ff082	0.5622636
204	0x3e731b26	0.23740825
205	0x3ee38afc	0.44441974
206	0x3ec608f4	0.38678706
207	0x3ecb6abd	0.39729872
208	0xbeaf611d	-0.3425378
209	0x3d2cb88f	0.042168196
210	0xbeaac451	-0.33352903
211	0x3dd01803	0.1016083
212	0x3cc89989	0.024487274
213	0x3eceeae9	0.40413597
214	0x3dc6d8bf	0.0970931
215	0x3ee1b5b7	0.4408395
216	0x3d912b8e	0.070883855
217	0xbdb352a1	-0.087559946
218	0x3cc984d6	0.024599474
219	0x3d7e6833	0.06211109
220	0xbecdb879	-0.40179804
221	0x3eab627d	0.33473578
222	0xbed12b73	-0.40853462
223	0xbe6a9fac	-0.22912472
224	0x3e1c02ae	0.15235397
225	0x3e858815	0.26080385
226	0x3f001d0a	0.5004431
227	0xbcbd3639	-0.023097144
228	0x3f1574af	0.5838117
229	0xbdb30869	-0.087418385
230	0x3eb4d7e0	0.3532095
231	0xbf3c8a4a	-0.7364851
232	0xbca8dcf0	-0.020613164
233	0xbf0fc9cb	-0.56167287
234	0x3d002b62	0.031291373
235	0x3ba42ae7	0.005009997
236	0xbf22d970	-0.63613033
237	0x3e3b1a9a	0.18271866
238	0xbd7b1cbe	-0.061306708
239	0x3e27376c	0.16329736
240	0x3f01c19f	0.5068607
241	0xbe4bd213	-0.19904356
242	0xbe88e865	-0.26739803
243	0x3e2f9802	0.1714783
244	0x3df35043	0.11880543
245	0xbe551971	-0.20810486
246	0xbe6014f6	-0.21882996
247	0xbf4cf0f7	-0.80055183
248	0xbdbfb492	-0.09360613
249	0xbd431b82	-0.047633655
250	0x3e027dd4	0.12743312
251	0xbf284b6c	-0.65740085
252	0xbf0bd729	-0.54625183
253	0x3e4f8690	0.20266175
254	0xbeaac7e4	-0.3335563
255	0x3cfa85f4	0.030581452

fc3.bias f4 [4]
0	0xbde38055	-0.11108462
1	0xbc0fa623	-0.008767637
2	0x3d9f3642	0.07774021
3	0xbd934de8	-0.07192594

bn1.weight f4 [128]
0	0x3efc48da	0.4927433
1	0x3f66844f	0.90045637
2	0x3f6689c8	0.9005399
3	0x3f097293	0.5369045
4	0x3fd5859a	1.6681397
5	0x3f958c56	1.1683452
6	0x3f8e314e	1.1108797
7	0x3f45339b	0.7703187
8	0x3f71ef7e	0.9450606
9	0x3f7dac97	0.99091476
10	0x3f114b58	0.5675559
11	0x3f1d895b	0.6153771
12	0x3faaef4b	1.3354276
13	0x3f7ecbc7	0.9952969
14	0x3f0ffeff	0.5624847
15	0x3f3d697b	0.73989075
16	0x3f29f858	0.6639457
17	0x3f8b0abf	1.0862654
18	0x3f5a85e4	0.8536055
19	0x3fa88773	1.3166336
20	0x3fae1cde	1.360256
21	0x3f3a0755	0.7266744
22	0x3f157f37	0.5839724
23	0x3f079585	0.52962524
24	0x3f1957fe	0.5989989
25	0x3f4571f3	0.77127
26	0x3f839951	1.0281163
27	0x3f217f56	0.63084924
28	0x3f36557a	0.71224177
29	0x3f5edfe7	0.870604
30	0x3f8ede01	1.11615
31	0x3f30a8c2	0.69007504
32	0x3f85cdb1	1.0453397
33	0x3f84a486	1.0362709
34	0x3f1193f2	0.5686637
35	0x3f96b235	1.1773134
36	0x3f2a4951	0.6651812
37	0x3f313681	0.6922379
38	0x3f8c08ef	1.0940226
39	0x3f32131b	0.695604
40	0x3f909be4	1.1297574
41	0x3fa4a0f7	1.2861623
42	0x3f8a8a26	1.082341
43	0x3f739ec0	0.9516411
44	0x3fa6da6e	1.303541
45	0x3fa8bbe9	1.3182346
46	0x3f1b7863	0.6073057
47	0x3f3b2b70	0.73113155
48	0x3f51fcf5	0.82026607
49	0x3f87f3fd	1.0621334
50	0x3f3615bb	0.7112691
51	0x3f47c961	0.78041655
52	0x3f8735a4	1.0563245
53	0x3f70712b	0.9392268
54	0x3f1d0833	0.61340636
55	0x3f2f4ba5	0.684748
56	0x3f26b92c	0.651263
57	0x3f796876	0.9742502
58	0x3f3f806d	0.7480534
59	0x3f52ce1d	0.82345754
60	0x3f8f8935	1.1213747
61	0x3f3033b4	0.6882889
62	0x3f79c84d	0.9757126
63	0x3f349037	0.70532554
64	0x3f70945c	0.9397638
65	0x3f514e79	0.81760365
66	0x3f8a9377	1.0826253
67	0x3f45953c	0.7718084
68	0x3f70e2f2	0.9409629
69	0x3f47e36e	0.78081405
70	0x3f6d60ea	0.92726004
71	0x3f931a91	1.1492482
72	0x3f995f46	1.19822
73	0x3f6a8dc6	0.9162258
74	0x3fa8f3c5	1.3199393
75	0x3f52145c	0.82062316
76	0x3f8b8ee9	1.0902988
77	0x3f924670	1.1427746
78	0x3fa8cddd	1.3187824
79	0x3f55ae5b	0.8346917
80	0x3f3659f1	0.7123099
81	0x3f8563d6	1.0421093
82	0x3f6fd52a	0.9368464
83	0x3f8094eb	1.0045446
84	0x3facd60e	1.3502824
85	0x3f8e4619	1.1115142
86	0x3f8b3542	1.0875628
87	0x3f8ed184	1.1157689
88	0x3fa4aaa3	1.2864574
89	0x3f7f08b6	0.99622667
90	0x3fa4f1d1	1.2886297
91	0x3f9e8d63	1.2386898
92	0x3f9ebfe0	1.2402306
93	0x3f9e2f62	1.235821
94	0x3f8b0d33	1.0863403
95	0x3f31296c	0.6920383
96	0x3f844a04	1.0335088
97	0x3f1e1a95	0.6175931
98	0x3f29a06e	0.6626042
99	0x3f3c417e	0.73537433
100	0x3f73b74d	0.9520157
101	0x3f20a17a	0.62746394
102	0x3f4c1d0f	0.7973184
103	0x3f618f14	0.88108945
104	0x3f8d6566	1.1046569
105	0x3f8d3637	1.103217
106	0x3f99af13	1.2006553
107	0x3f399085	0.72486144
108	0x3f3b6680	0.7320328
109	0x3f633e6b	0.8876712
110	0x3f2edebb	0.6830861
111	0x3f514ce4	0.8175795
112	0x3f734872	0.9503242
113	0x3f67c7ab	0.90539044
114	0x3f708d56	0.9396566
115	0x3f27a201	0.65481573
116	0x3f8ee2af	1.1162928
117	0x3f39c15c	0.7256067
118	0x3f84a402	1.0362551
119	0x3faa888e	1.3322923
120	0x3f7467bf	0.95470804
121	0x3f3700ce	0.714856
122	0x3f8e83ad	1.1133934
123	0x3f676c65	0.9039977
124	0x3fb6100f	1.4223651
125	0x3f9400d7	1.1562756
126	0x3f4ea41a	0.8071915
127	0x3f8218f1	1.0163862

bn1.bias f4 [128]
0	0xbd7553ac	-0.05989425
1	0x3e1c60c4	0.15271288
2	0xbc8f7d44	-0.017515786
3	0x3cba2e62	0.022727195
4	0x3e01c6eb	0.12673537
5	0x3d73fd3c	0.059567675
6	0x3d9f93be	0.077918515
7	0x3e174b0c	0.14774722
8	0xbd4d7db5	-0.05016871
9	0x3d7582a3	0.059939038
10	0x3e080ae6	0.13285407
11	0x3e52c4f4	0.20582944
12	0xbdd376eb	-0.10325416
13	0xbd709309	-0.058733974
14	0x3e30bff1	0.1726072
15	0xbbe7d56f	-0.007075004
16	0xbcc7dd2f	-0.02439746
17	0xbc8d4861	-0.017246427
18	0x3d7afe8a	0.061277904
19	0x3dc9dce6	0.09856586
20	0x3e2d3733	0.16915588
21	0xbe2020d0	-0.15637517
22	0x3e2181da	0.1577219
23	0xbd162098	-0.036652178
24	0x3ddf453d	0.10901878
25	0xbd032d34	-0.03202553
26	0x3caf6dec	0.02141472
27	0xbd8f6f80	-0.07003689
28	0xbceec0c0	-0.029144645
29	0x3df7e8d5	0.12104956
30	0x3e2781ce	0.1635811
31	0x3cee7dc3	0.029112702
32	0x3e17c1c5	0.14820011
33	0xbd6bee64	-0.057600394
34	0xbeea67e6	-0.45782393
35	0x3db4ecdc	0.0883424
36	0x3babc436	0.005241896
37	0xbcc853e8	-0.024454072
38	0xbe4ba1b0	-0.19885898
39	0x3d944bd3	0.07241025
40	0x3e791da7	0.24327718
41	0xbd40de5f	-0.04708707
42	0x3d128c8b	0.035778563
43	0x3c7eff8e	0.015563859
44	0x3db2c909	0.08729751
45	0x3e08d488	0.13362324
46	0x3e4596a4	0.19295746
47	0x3da303a5	0.079596795
48	0x3e2d0e62	0.16900018
49	0x3c600572	0.013673173
50	0x3da8b508	0.08237654
51	0x3e0dd209	0.13849653
52	0x3e58658a	0.21132484
53	0xbd607673	-0.054800462
54	0xbe4bee04	-0.19915015
55	0xbdc38aca	-0.09547956
56	0xbdd377ee	-0.10325609
57	0x3db869a9	0.09004528
58	0x3db7f255	0.08981768
59	0x3d5a9b51	0.053370778
60	0x3dcc63c1	0.09979964
61	0x3d703f4e	0.058654122
62	0xbd43d860	-0.047813773
63	0xbd985d0b	-0.074396215
64	0xbe187721	-0.14889194
65	0x3b316cfc	0.0027073016
66	0x3e8864dd	0.26639453
67	0x3dc58c0b	0.09645852
68	0x3dd36de7	0.103236966
69	0x3daadcef	0.08342921
70	0xbd2acd9b	-0.041699987
71	0x3d27ce33	0.04096813
72	0x3e513066	0.20428619
73	0xbcea34a1	-0.028589549
74	0x3e78c6f8	0.2429465
75	0x3e3b8593	0.18312673
76	0xbdd2f15f	-0.10299944
77	0x3d3bd586	0.04585793
78	0x3d9452e2	0.07242371
79	0x3e64fd98	0.22362363
80	0x3e4f7403	0.20259099
81	0x3e07bbdf	0.13255261
82	0x3dca873a	0.09889074
83	0x3af3f563	0.001861256
84	0x3e6bfb04	0.23044974
85	0x3e33c589	0.17555822
86	0x3da5fd95	0.081050076
87	0x3da41a0a	0.08012779
88	0xbdc310e0	-0.09524703
89	0x3d5354f9	0.051594708
90	0x3dbf7a4d	0.09349499
91	0xbdfb0890	-0.122574925
92	0x3dd2d88d	0.1029521
93	0xbd2281c9	-0.039674554
94	0x3d946905	0.072465934
95	0xbb172db8	-0.0023068022
96	0x3de28ab2	0.1106161
97	0x3e2b069e	0.16701743
98	0x3d8f26fb	0.06989857
99	0x3d4b1300	0.049578667
100	0x3d0e8e2b	0.03480355
101	0x3d33ad1d	0.043866266
102	0x3e3e5dad	0.18590422
103	0x3d0f7e56	0.035032593
104	0xbd4bb4b5	-0.049732883
105	0x3dc2e9a5	0.095172204
106	0x3e46061a	0.19338265
107	0x3dd70b8c	0.10500249
108	0x3e89be7c	0.2690314
109	0x3dcc254e	0.09968053
110	0xbd94af7d	-0.07260034
111	0x3dd2dc24	0.10295895
112	0xbe498e06	-0.19683084
113	0x3d14812c	0.036256
114	0x3e153899	0.14572372
115	0x3e6424a8	0.22279608
116	0xbe59c566	-0.21266708
117	0xbd236d39	-0.039899085
118	0x3bcb98cb	0.0062132827
119	0xbdd7ccca	-0.10537107
120	0xbe28aae5	-0.16471441
121	0x3dc823b7	0.09772437
122	0xbbe0e854	-0.006863633
123	0x3ddf8597	0.10914152
124	0xbe2de2ff	-0.16981123
125	0xbd369138	-0.044572085
126	0x3e0de4f0	0.13856864
127	0xbeac887d	-0.33697882

bn1.running_mean f4 [128]
0	0x3ecdf46e	0.40225548
1	0x3e277c4f	0.16356014
2	0x3d9d3faa	0.076781586
3	0x3e00daeb	0.1258351
4	0x3e9c7be3	0.30563268
5	0x3e90f3e5	0.28311077
6	0x3d7e0545	0.062016744
7	0x3f0dc1ee	0.5537404
8	0x3f40b71a	0.7527939
9	0x3e3a4a14	0.18192321
10	0x3d08f42a	0.033435978
11	0x3d2537a8	0.04033628
12	0x3f335242	0.7004739
13	0x3d89218e	0.06695853
14	0x3e026057	0.12732063
15	0x3e39d695	0.18148263
16	0x3e14d6bd	0.14535041
17	0x3db7aea7	0.08968859
18	0x3ed52c10	0.4163518
19	0x3ed7292b	0.42023596
20	0x3e96e536	0.2947175
21	0x3e495335	0.19660647
22	0x3e466f20	0.19378328
23	0x3d6abacd	0.057307053
24	0x3dad3cb2	0.08458842
25	0x3d79c795	0.060981352
26	0x3de89c82	0.113579765
27	0x3e0760f8	0.13220584
28	0x3d4ed485	0.050495643
29	0x3e8da21d	0.27662745
30	0x3e67a8e7	0.22623025
31	0x3e55c7ab	0.20876949
32	0x3d665c14	0.056240156
33	0x3d298834	0.04138966
34	0x3d8f566c	0.069989055
35	0x3f31d445	0.6946452
36	0x3e1d950f	0.15388893
37	0x3e3efec0	0.18651867
38	0x3f0e406c	0.5556705
39	0x3e1aa863	0.15103297
40	0x3e1f856d	0.15578242
41	0x3e6736be	0.22579476
42	0x3f8645ea	1.0490086
43	0x3de13faa	0.10998471
44	0x3f06af28	0.5261102
45	0x3f30d572	0.6907569
46	0x3f302457	0.6880545
47	0x3eb8e5d8	0.36112857
48	0x3ec2bcde	0.3803472
49	0x3ecc2554	0.3987223
50	0x3d2ccf7c	0.04219006
51	0x3f149b79	0.5804973
52	0x3e25429c	0.1613869
53	0x3e58b8ab	0.21164195
54	0x3dc1cf80	0.094634056
55	0x3ea5ea08	0.32405114
56	0x3f4d4c88	0.801949
57	0x3dab6307	0.08368497
58	0x3f1f234a	0.6216322
59	0x3e353e70	0.176996
60	0x3ef94e03	0.4869233
61	0x3e87b4b2	0.26505047
62	0x3f72f495	0.9490445
63	0x3e0a43bb	0.135024
64	0x3e8ffda4	0.281232
65	0x3f244fe1	0.64184386
66	0x3f2efed0	0.68357563
67	0x3e90f647	0.28312895
68	0x3ec8763b	0.39152703
69	0x3da28e0f	0.07937252
70	0x3ec34317	0.38137123
71	0x3e94bbb6	0.29049462
72	0x3e6437ca	0.22286907
73	0x3e5773fa	0.21040335
74	0x3efbd309	0.49184445
75	0x3e344481	0.17604257
76	0x3e14f262	0.14545587
77	0x3dd8366e	0.10557257
78	0x3e095d6c	0.13414544
79	0x3e45115c	0.19244903
80	0x3e2553bb	0.16145222
81	0x3e1472b6	0.14496884
82	0x3c836e6c	0.016043864
83	0x3e92bcfe	0.28659815
84	0x3f0d68e5	0.5523818
85	0x3e33a215	0.17542298
86	0x3f6d28ca	0.92640364
87	0x3ee702d0	0.45119333
88	0x3eac9907	0.337105
89	0x3fa0935d	1.2544972
90	0x3e5aebef	0.21379064
91	0x3cd2b4e8	0.025721028
92	0x3e3a1448	0.18171799
93	0x3dd9ef99	0.10641403
94	0x3f897964	1.074017
95	0x3f053c9f	0.52045625
96	0x3e8cf11b	0.275277
97	0x3ec79cea	0.38986903
98	0x3f3e54d5	0.74348193
99	0x3d940dfd	0.072292306
100	0x3e7e0c7b	0.24809448
101	0x3cb0fc85	0.021604786
102	0x3f674a6e	0.90347946
103	0x3f110632	0.5665008
104	0x3e192dde	0.14958903
105	0x3f8d3cf3	1.1034225
106	0x3fc6254c	1.5480132
107	0x3f02c802	0.5108644
108	0x3f4cd85d	0.80017644
109	0x3f2819a2	0.6566411
110	0x3ef2b62b	0.47404608
111	0x3e337791	0.1752608
112	0x3d680b50	0.056651413
113	0x3d918e22	0.07107188
114	0x3f117e26	0.5683311
115	0x3ccb4729	0.024814205
116	0x3d08f666	0.03343811
117	0x3d1b10b9	0.037857745
118	0x3e7fb13b	0.24969952
119	0x3e9c4868	0.30523992
120	0x3eaf24c8	0.3420775
121	0x3e8ed0e1	0.27893737
122	0x3e1678ed	0.14694567
123	0x3db7c790	0.089736104
124	0x3e5acac0	0.21366405
125	0x3e757e24	0.239739
126	0x3c3af061	0.01140985
127	0x3e22e5e3	0.15908007

bn1.running_var f4 [128]
0	0x3ea965f1	0.33085588
1	0x3de67361	0.112524755
2	0x3d354961	0.044259433
3	0x3dc40474	0.09571162
4	0x3e472a89	0.1944982
5	0x3e77ca51	0.24198271
6	0x3d1a186b	0.037620943
7	0x3eeca239	0.46217516
8	0x3e7c7f8c	0.2465803
9	0x3db44777	0.08802693
10	0x3c584f2f	0.013202473
11	0x3c97b7a5	0.018520186
12	0x3f485e52	0.7826892
13	0x3d2125df	0.039342757
14	0x3d95170e	0.07279788
15	0x3df53135	0.11972276
16	0x3dcdc2b2	0.10046901
17	0x3d714ba5	0.05891003
18	0x3eda6fd9	0.42663458
19	0x3ebffc0d	0.37496987
20	0x3e41311a	0.18866387
21	0x3dedc4d0	0.11609805
22	0x3dccd1b9	0.10000939
23	0x3d2eab11	0.04264361
24	0x3d39bf62	0.045348532
25	0x3d364670	0.04450077
26	0x3d9324b2	0.071847335
27	0x3d8f5699	0.06998939
28	0x3d08cb63	0.03339709
29	0x3e788638	0.2426995
30	0x3e253af1	0.16135766
31	0x3dcb5926	0.09929113
32	0x3cd67dd0	0.026183039
33	0x3c9df378	0.019281134
34	0x3d18357f	0.037160393
35	0x3ef2a104	0.4738847
36	0x3d8efd4e	0.06981908
37	0x3dc60607	0.096691184
38	0x3ea0f28a	0.31435043
39	0x3de3fb22	0.11131884
40	0x3ddf7129	0.109102555
41	0x3e267491	0.16255404
42	0x3e459dc5	0.19298466
43	0x3d91cee9	0.07119543
44	0x3e4d9f87	0.20080386
45	0x3eed7494	0.46378005
46	0x3f5f82d4	0.87309
47	0x3e6db4d4	0.23213512
48	0x3e5f3650	0.21798062
49	0x3e66df8a	0.22546211
50	0x3d0bb071	0.034103815
51	0x3ed93c51	0.4242883
52	0x3daecb16	0.08534829
53	0x3dcc3111	0.09970296
54	0x3d97401b	0.07385274
55	0x3e167d9d	0.14696355
56	0x3f45b3d4	0.7722752
57	0x3cfec528	0.03109987
58	0x3ebbaf74	0.36657298
59	0x3dd4737f	0.10373592
60	0x3e8a4ded	0.27012578
61	0x3e4f02b6	0.20215878
62	0x3ebcad21	0.36850837
63	0x3d943496	0.072365925
64	0x3e0d4b67	0.13798295
65	0x3e738b11	0.23783518
66	0x3f0c8c5b	0.54901665
67	0x3e5887a4	0.21145493
68	0x3ea6a1c2	0.32545286
69	0x3d0920d3	0.03347857
70	0x3e6d37ba	0.23165789
71	0x3e41f92c	0.18942708
72	0x3e4475bc	0.19185537
73	0x3dcfca88	0.10146052
74	0x3ead0bf0	0.3379817
75	0x3df163f5	0.117866434
76	0x3dfb357f	0.12266063
77	0x3d800d67	0.06252556
78	0x3dba2f1f	0.09091019
79	0x3e1c8115	0.15283616
80	0x3dc0a2a5	0.09406022
81	0x3d8a0ea4	0.06741074
82	0x3c02875d	0.007966843
83	0x3dd1a66d	0.10236821
84	0x3f12294a	0.5709425
85	0x3dd6fe30	0.10497701
86	0x3f1a2e28	0.6022668
87	0x3e826b7c	0.2547263
88	0x3dff4794	0.12464824
89	0x3fb5bfc7	1.4199151
90	0x3e386dea	0.18010679
91	0x3c475ab1	0.012167619
92	0x3df16372	0.11786546
93	0x3d75605b	0.059906345
94	0x3f83a038	1.028327
95	0x3ee05eaa	0.43822223
96	0x3e767eef	0.24071859
97	0x3e6c8482	0.23097423
98	0x3f195d7e	0.5990828
99	0x3d288ec2	0.04115177
100	0x3de04358	0.10950345
101	0x3c0ab88d	0.008466852
102	0x3ec6a1f3	0.38795432
103	0x3eb04e34	0.34434664
104	0x3e0567da	0.13027897
105	0x3f7d7b8a	0.9901663
106	0x3eeb5350	0.45962
107	0x3ed67bf4	0.41891444
108	0x3f5b7f89	0.8574148
109	0x3f01c507	0.50691265
110	0x3edefae9	0.43550804
111	0x3df68c71	0.12038506
112	0x3ce08e18	0.027411506
113	0x3d056469	0.03256646
114	0x3ec69c5a	0.38791162
115	0x3c041872	0.008062469
116	0x3cbd26a7	0.02308972
117	0x3ca1117d	0.01966166
118	0x3e3e477c	0.18581957
119	0x3e8bff34	0.27343142
120	0x3e582c41	0.21110632
121	0x3e21cd58	0.15800989
122	0x3d9e09d5	0.07716719
123	0x3d32d972	0.043664403
124	0x3e100f86	0.14068422
125	0x3e33370d	0.17501469
126	0x3c1ad8fd	0.009451148
127	0x3d829b0d	0.0637723
