critic_weights.pth (torch_old, 89612 bytes, 9 tensors)

fcs1.weight f4 [128, 33]
0.032332048 0.052926067 0.059943054 -0.02847706 -0.31502634 0.35004118 0.018790554 0.0016548017
-0.10869584 0.012033471 0.031637635 -0.008355407 0.013262576 -0.039480984 -0.003680783 -0.04370587
-0.0052433377 0.16578506 0.071368806 -0.0033584472 0.008395693 -0.014587064 -0.00370102 0.025611594
-0.0013757882 0.014035586 0.14720233 0.10058003 0.07992352 0.034565575 -0.13134164 -0.040924683
0.8550518 0.079172224 -0.057476874 0.10795811 -0.19724534 -0.03231445 0.15541486 0.07574733
0.021597922 -0.04143345 0.02933949 0.00017723875 0.004213893 -0.02618098 -0.06046998 0.11222341
-0.17915352 -0.45494327 0.14472821 -0.0956452 0.2374041 -0.008201614 0.030268898 -0.012827717
-0.004208968 0.05210832 -0.10994034 0.08021931 -0.037514325 0.073219314 -0.08655142 0.09376492
-0.084935606 -0.4588461 0.21139202 -0.017226776 -0.18080729 0.041367322 -0.29534325 0.002082141
0.32042798 0.07064307 0.06508093 -0.014848603 0.024583396 0.0165758 0.006726038 -0.09023059
0.019667242 0.17566459 0.25135344 0.07000493 -0.3416446 0.04775207 -0.004363363 0.0034560517
-0.0413073 -0.028985823 -0.047812555 0.042458706 0.013285291 0.01878148 -0.13318011 0.011896677
-0.12602212 0.007980928 -0.22392614 0.09368412 0.025941525 -0.065479815 -0.008154051 0.035852093
0.3759463 -0.13087337 0.048245445 0.19353662 0.0015621417 0.00407112 0.016806034 -0.040314537
0.07758087 0.13736424 -0.016557703 0.6331239 0.3155723 0.29010063 0.29698372 0.00841526
-0.033510894 -0.0450988 -0.04453573 -0.053776693 -0.030576931 0.058641855 0.1695516 0.048286214
0.0043355003 -0.12032855 0.08217984 0.45339915 0.11438082 2.1851617e-06 -0.10361048 -0.102163635
-0.046922866 -0.19836032 -0.11290471 0.00333398 0.11657987 -0.0062364936 -0.05194922 -0.033762697
-0.012071072 -0.16386272 -0.040887777 -0.1394763 -0.1175666 -0.196581 0.4797609 0.014567255
0.014507902 0.013629773 -0.02700083 -0.10460502 -0.058529444 0.06914135 0.05359003 -0.2806173
0.19782777 -0.050218623 0.12865761 0.087351106 -0.047365095 0.08750047 0.11173819 0.049468763
-0.05994859 -0.059938543 -0.15837447 0.5209818 -0.068314284 -0.36003697 -0.20037456 0.018643247
0.097575486 0.047262695 -0.06079938 0.05212017 -0.047834374 -0.61970466 0.26505998 0.17629848
-0.28944883 0.13683169 -0.100283064 -0.0005137839 -0.10769613 -0.021734146 0.03844966 0.02622597
-0.03580225 -0.09075519 0.036763914 0.19950621 -0.027420666 -0.12692031 -0.34517336 0.03488022
-0.08608998 -0.088270776 -0.12601027 -0.5638241 0.40149257 0.016142061 -0.2485664 0.004831762
-0.10346975 -0.0031970667 0.040003046 0.04463396 -0.03473193 -0.0073922477 0.0676739 -0.13356452
0.0224408 -0.10922265 0.011892186 0.019842818 0.030638559 0.016584402 -0.004565077 -0.0075722462
0.17282714 0.086530425 -0.055439115 -0.043558598 -0.17040358 -0.04298225 -0.20861942 0.021715691
-0.108877204 0.123392425 -0.093040965 -0.026955703 -0.28837657 0.003087622 -0.07389246 -0.07378969
0.116616406 -0.09999602 0.047519017 -0.012157858 -0.06345739 0.043885034 0.052125327 -0.20460512
-0.18024638 0.04224378 -0.14446867 0.05862137 -0.018326307 0.027084516 -0.04545789 -0.026554216
00000000: 9c6e 043d 01c9 583d d986 753d b948 e9bc
00000010: 224b a1be 9938 b33e a6ee 993c eee5 d83a
00000020: ed9b debd 0928 453c 7796 013d 1ee5 08bc
00000030: 474b 593c d0b6 21bd 4b39 71bb ed04 33bd
00000040: 4ed0 abbb 8fc3 293e cf29 923d 6519 5cbb
00000050: 178e 093c 95fe 6ebc d08c 72bb 68cf d13c
00000060: cb53 b4ba 84f5 653c 35bc 163e e7fc cd3d
00000070: f1ae a33d a294 0d3d 6c7e 06be a4a0 27bd
00000080: ade4 5a3f 0c25 a23d df6c 6bbd 2419 dd3d
00000090: affa 49be 285c 04bd 1325 1f3e 6b21 9b3d
000000a0: 20ee b03c 1fb6 29bd 5f59 f03c 2ad9 3939
000000b0: b214 8a3b 7f79 d6bc 5faf 77bd 63d5 e53d
000000c0: 0574 37be 53ee e8be a233 143e a1e1 c3bd
000000d0: 0f1a 733e 1060 06bc 7bf6 f73c 582b 52bc
000000e0: 62eb 89bb 896f 553d 6728 e1bd 064a a43d
000000f0: 9fa8 19bd 02f4 953d df41 b1bd d307 c03d
00000100: b8f2 adbd e0ed eabe 2677 583e 2b1f 8dbc
00000110: 8c25 39be c870 293d 3b37 97be 8874 083b
00000120: 230f a43e 50ad 903d 2749 853d 8e47 73bc
00000130: 1e63 c93c f9c9 873c 1966 dc3b d1ca b8bd
00000140: 321d a13c 6be1 333e 66b1 803e bf5e 8f3d
00000150: 0aec aebe ad97 433d 8bfa 8ebb ed7e 623b
00000160: d831 29bd ad73 edbc 19d7 43bd 2ee9 2d3d
00000170: 8daa 593c 9edb 993c 5e60 08be 48ea 423c
00000180: f10b 01be 70c2 023c e54c 65be 76dd bf3d
00000190: 5283 d43c 481a 86bd 9298 05bc a5d9 123d
000001a0: 097c c03e ab03 06be 049d 453d 772e 463e
000001b0: c7c0 cc3a 0867 853b cfac 893c db20 25bd
000001c0: b8e2 9e3d 36a9 0c3e 05a4 87bc 6814 223f
000001d0: b192 a13e 1288 943e 400e 983e 29e0 093c
000001e0: b842 09bd 85b9 38bd 196b 36bd f344 5cbd
000001f0: 797c fabc 7132 703d ef9e 2d3e c4c7 453d
00000200: d010 8e3b d16e f6bd e74d a83d ef23 e83e
00000210: 7e40 ea3d cba4 1236 bb31 d4bd 2b3b d1bd
00000220: 3132 40bd f81e 4bbe 963a e7bd e77e 5a3b
00000230: 6dc1 ee3d 805b ccbb b5c8 54bd c14a 0abd
00000240: bfc5 45bc a1cb 27be f179 27bd e0d2 0ebe
00000250: c2c6 f0bd 884c 49be 38a3 f53e 7fab 6e3c
00000260: 8db2 6d3c 694f 5f3c d830 ddbc 283b d6bd
00000270: 92bc 6fbd fb99 8d3d 3881 5b3d 12ad 8fbe
00000280: 5d93 4a3e 0bb2 4dbd d2be 033e 23e5 b23d
00000290: e701 42bd 7233 b33d fed6 e43d c29f 4a3d
000002a0: a78c 75bd 1e82 75bd eb2c 22be 105f 053f
000002b0: 5ce8 8bbd c456 b8be fd2e 4dbe b9b9 983c
000002c0: a8d5 c73d 8796 413d c508 79bd f67b 553d
000002d0: faed 43bd f7a4 1ebf f1b5 873e 9787 343e
000002e0: a332 94be 9b1d 0c3e 3561 cdbd 74af 06ba
000002f0: ca8f dcbd cf0b b2bc 647d 1d3d d8d7 d63c
00000300: 61a5 12bd dbdd b9bd c295 163d 5b4b 4c3e
00000310: 4ea1 e0bc 66f7 01be 90ba b0be 90de 0e3d
00000320: f24f b0bd 4fc7 b4bd d608 01be c756 10bf
00000330: 6f90 cd3e 5b3c 843c 3188 7ebe c253 9e3b
00000340: f3e7 d3bd e185 51bb 3cda 233d 19d2 363d
00000350: 1143 0ebd ab3a f2bb 9d98 8a3d 23c5 08be
00000360: c5d5 b73c 20b0 dfbd 71d7 423c 688d a23c
00000370: b7fd fa3c 03dc 873c a496 95bb 9b20 f8bb
00000380: 99f9 303e dd36 b13d 2014 63bd 806a 32bd
00000390: 477e 2ebe 280e 30bd 54a0 55be 1be5 b13c
000003a0: 03fb debd 2bb5 fc3d 438c bebd 35d2 dcbc
000003b0: 18a6 93be b459 4a3b ee54 97bd 0d1f 97bd
000003c0: 95d4 ee3d b7ca ccbd 4da3 423d c131 47bc
000003d0: f3f5 81bd cbc0 333d 5e81 553d 0184 51be
000003e0: 8292 38be d007 2d3d 98ef 13be f61c 703d
000003f0: 0d21 96bc 59e0 dd3c 0d32 3abd 3a88 d9bc

fcs1.bias f4 [128]
-0.22632416 0.019037478 -0.21992123 -0.09147066 0.033771478 -0.019768177 -0.043756433 -0.3171054
-0.27103874 -0.14620602 -0.45027193 0.061205473 -0.19097754 -0.27645952 -0.38089612 0.16845824
-0.21485147 0.12980779 -0.1414765 -0.12676857 -0.19198325 -0.17428103 0.015135967 0.051999852
-0.16666435 -0.11187163 0.02421388 -0.101241186 -0.17217898 -0.040690616 0.08324155 -0.16453661
-0.10132258 0.063334316 -0.055979025 0.22926329 0.053445384 -0.27167565 -0.3232485 -0.09263329
-0.099699706 0.21508467 0.064999856 -0.24938117 -0.06752938 -0.14753748 -0.20281895 -0.10577485
-0.23348226 -0.13314484 -0.09515247 -0.20483778 0.06565558 -0.09318706 0.11952824 -0.24821387
-0.116070256 -0.39216933 0.020091249 -0.0068758978 -0.25553304 -0.2571608 -0.06290705 -0.020588709
-0.021549756 0.1151914 -0.04139802 0.23445219 -0.09968575 -0.16724183 -0.1637008 -0.024643345
-0.107995704 -0.052394368 -0.030426877 -0.3852507 -0.023107927 0.14663927 -0.010992474 -0.10911961
-0.19500807 -0.083172284 0.025609445 0.0023722176 -0.13674867 -0.115383334 -0.3050073 -0.056846716
-0.12013863 -0.028941404 -0.07424388 0.010286095 -0.28228867 0.03660061 0.08048562 0.21745281
-0.28087068 -0.30048853 -0.013006981 -0.074353606 -0.04235489 -0.100950606 -0.109023154 -0.22735894
-0.14112559 0.13281569 -0.25154302 -0.25457633 0.14157331 0.07586966 0.10946024 -0.10898616
0.20887004 -0.021418568 -0.002592574 0.08149081 -0.097252145 -0.25219253 0.09168048 -0.19024947
-0.15526597 -0.16189124 -0.15087743 -0.04847481 -0.10084506 -0.29000214 -0.01602668 -0.31828833
00000000: 85c1 67be 7cf4 9b3c 0833 61be f854 bbbd
00000010: f653 0a3d dff0 a1bc f239 33bd a45b a2be
00000020: 97c5 8abe 08b7 15be 0b8a e6be 97b2 7a3d
00000030: 9e8f 43be 1a8c 8dbe d104 c3be 5180 2c3e
00000040: 0602 5cbe 55ec 043e 37df 10be 9fcf 01be
00000050: 4297 44be ba76 32be d9fc 773c ccfd 543d
00000060: 0faa 2abe f41c e5bd 305c c63c 8a57 cfbd
00000070: b04f 30be 34ab 26bd 8c7a aa3d 497c 28be
00000080: 3682 cfbd 6cb5 813d 434a 65bd ffc3 6a3e
00000090: 8ce9 5a3d 1219 8bbe d480 a5be 86b6 bdbd
000000a0: 5c2f ccbd 283f 5c3e a51e 853d c75d 7fbe
000000b0: d84c 8abd 1114 17be c5af 4fbe 7ca0 d8bd
000000c0: f915 6fbe 1f57 08be 4cdf c2bd ffc0 51be
000000d0: 6f76 863d dbd8 bebd 39cb f43d c72b 7ebe
000000e0: 3eb6 edbd 6bca c8be 6796 a43c 364f e1bb
000000f0: 3ad5 82be 95aa 83be 69d5 80bd a7a9 a8bc
00000100: 1d89 b0bc 78e9 eb3d f890 29bd 3c14 703e
00000110: 0b28 ccbd 7141 2bbe 2fa1 27be d7e0 c9bc
00000120: da2c ddbd 7a9b 56bd c941 f9bc 943f c5be
00000130: d64c bdbc 9b28 163e c719 34bc 1a7a dfbd
00000140: 32b0 47be 3b56 aabd e6ca d13c 3577 1b3b
00000150: d807 0cbe 194e ecbd eb29 9cbe 1ad8 68bd
00000160: 3e0b f6bd 8616 edbc 2d0d 98bd 0287 283c
00000170: 2488 90be 85ea 153d a5d5 a43d f3ab 5e3e
00000180: 48ce 8fbe a2d9 99be 3c1b 55bc b446 98bd
00000190: 527c 2dbd 31bf cebd 8847 dfbd c8d0 68be
000001a0: 3a83 10be d600 083e 3fca 80be d457 82be
000001b0: 98f8 103e 8d61 9b3d b12c e03d 2334 dfbd
000001c0: 07e2 553e fe75 afbc 2de8 29bb a7e4 a63d
000001d0: 222c c7bd 611f 81be fac2 bb3d c2d0 42be
000001e0: 0bfe 1ebe d1c6 25be 9d7f 1abe 868d 46bd
000001f0: db87 cebd 297b 94be 624a 83bc b0f6 a2be

fc2.weight f4 [128, 132]
-0.062551714 -0.1365387 -0.033510286 -0.040127426 0.18796428 0.08615739 0.07581849 0.04619668
0.032448705 -0.23691426 0.055736355 -0.04802913 -0.02169511 0.11843271 -0.052853983 0.06201489
-0.10729723 0.044953164 -0.047065675 0.05211558 -0.30143234 0.0988639 -0.14027943 -0.042964295
0.08464002 -0.15201935 0.20495684 -0.18076745 0.038209278 0.035575137 -0.21390896 -0.12876064
-0.02076537 0.012090329 0.05833908 -0.15989964 -0.11682881 0.10097568 -0.14559339 0.008586833
-0.16185828 -0.0071424786 0.048975524 0.0055628084 -0.063473314 0.22204933 0.06945568 0.15466662
0.013415689 0.13223088 0.11903399 -0.17091314 0.036461387 0.015766568 0.0063775233 0.111258715
-0.09521679 -0.013741688 0.03562283 0.10524557 -0.12078748 -0.050385866 -0.004829021 0.03471384
-0.038118295 -0.065336145 0.08509279 -0.110441774 -0.07687008 -0.048100747 -0.16818038 -0.056404013
0.04871209 -0.003037591 -0.038213607 -0.16878368 0.087372884 -0.18941228 0.06656342 -0.041055378
0.09063885 0.11707699 -0.08175046 -0.33506787 -0.29386148 0.028613664 0.0344997 -0.08194923
0.080663346 -0.029420529 -0.19664782 -0.07665583 -0.02346686 -0.0234294 0.11021543 0.058695532
-0.14291991 -0.015478808 0.015424748 -0.010833329 -0.09636667 0.075530104 -0.13742253 -0.15420021
-0.03346873 -0.08799831 -0.036603544 0.060886282 -0.15309191 -0.14328721 0.114299975 0.0070752036
0.16399047 -0.008097232 -0.030218719 0.030781554 -0.009791443 0.049564306 0.006838544 -0.078998454
0.0928805 0.058533758 0.09763184 -0.14867826 0.015290159 0.027490498 -0.08959758 -0.06040334
0.08734961 0.105171606 0.10051588 0.09378351 -0.17896 -0.05218579 -0.09531631 -0.036285695
0.092816636 -0.04558964 0.13585478 -0.13470642 -0.032719605 0.00041887487 -0.06742287 0.021796124
0.015199655 0.05486185 0.08885257 -0.11212389 -0.14297657 -0.23556541 -0.04191228 0.046761006
0.10181893 -0.27026525 0.006519461 -0.17675571 -0.021504192 -0.24175839 -0.108309954 0.1313051
-0.14930819 0.09163218 0.1302032 0.071780324 -0.13680023 0.02541945 0.047776118 -0.22266605
0.043327935 -0.12282722 0.046670668 0.07824876 -0.026454046 -0.14482139 -0.23386917 -0.009786209
-0.18259536 -0.33515573 -0.1828837 0.012080027 -0.17052947 0.07136143 0.029566279 -0.022031382
-0.17503303 0.037937503 -0.020245593 -0.104598366 -0.20381212 0.30948403 -0.14355183 0.033229437
-0.3017907 0.024507355 0.07802809 -0.10587095 -0.016759379 -0.073716104 0.008790279 -0.10370421
-0.0101839425 0.005760125 -0.038518067 0.10649604 -0.14813928 0.12572642 0.08455588 0.0059526986
-0.008734307 0.05408826 -0.08185907 0.09025341 -0.13406157 0.23117083 -0.009700327 -0.16879846
0.00858141 0.02656465 -0.25119781 0.0765298 -0.050014228 0.06455682 0.17828903 0.046347752
0.03957345 -0.09697667 -0.20111567 -0.1999644 0.12198394 0.028766321 0.04716546 -0.0020815763
-0.092747174 -0.05160134 0.00050056796 -0.17235765 -0.062494356 -0.16899055 -0.11880976 -0.03702423
0.18161887 -0.07361349 -0.049760588 0.029490536 0.11513797 -0.020497596 -0.18145761 -0.05139214
0.014646879 -0.07025327 -0.18870658 0.14484698 -0.18422404 -0.0757894 -0.3007486 0.07538614
00000000: 1d1b 80bd cdd0 0bbe 1542 09bd a85c 24bd
00000010: b579 403e 4973 b03d b946 9b3d bb38 3d3d
00000020: efe8 043d a799 72be ce4b 643d 31ba 44bd
00000030: f1b9 b1bc d98c f23d 6b7d 58bd 5303 7e3d
00000040: a6be dbbd cf20 383d f0c7 40bd 2577 553d
00000050: 5755 9abe 2879 ca3d 69a5 0fbe 54fb 2fbd
00000060: bf57 ad3d f6aa 1bbe 35e0 513e 1a1b 39be
00000070: 5581 1c3d 3cb7 113d f30a 5bbe d4d9 03be
00000080: 231c aabc 8416 463c f6f4 6e3d bbbc 23be
00000090: f143 efbd 56cc ce3d 6f16 15be caaf 0c3c
000000a0: 2dbe 25be 740b eabb 8f9a 483d 3848 b63b
000000b0: 4cfe 81bd e660 633e c83e 8e3d ed60 1e3e
000000c0: 7acd 5b3c 8867 073e 18c8 f33d db03 2fbe
000000d0: 8958 153d e428 813c 8bfa d03b 9cdb e33d
000000e0: 0501 c3bd d124 61bc 3fe9 113d fd8a d73d
000000f0: 6d5f f7bd 6961 4ebd c43c 9ebb 1930 0e3d
00000100: ee21 1cbd f5ce 85bd 2145 ae3d 4c2f e2bd
00000110: 0f6e 9dbd 4a05 45bd 7a37 2cbe e507 67bd
00000120: 5486 473d 5212 47bb df85 1cbd a1d5 2cbe
00000130: 8ef0 b23d 4bf5 41be 6752 883d af29 28bd
00000140: dda0 b93d 10c6 ef3d c96c a7bd 048e abbe
00000150: 0375 96be 3467 ea3c 8f4f 0d3d ffd4 a7bd
00000160: d332 a53d 5203 f1bc 0c5e 49be bbfd 9cbd
00000170: 933d c0bc 03ef bfbc a1b8 e13d ba6a 703d
00000180: 9959 12be d49a 7dbc 15b8 7c3c 467e 31bc
00000190: e45b c5bd 87af 9a3d 7eb8 0cbe a9e6 1dbe
000001a0: 8216 09bd 7538 b4bd 99ed 15bd e563 793d
000001b0: 20c4 1cbe e2b9 12be 1b16 ea3d 1cd7 e73b
000001c0: 1eed 273e 41aa 04bc 3f8d f7bc 9929 fc3c
000001d0: 4a6c 20bc f103 4b3d dd15 e03b f1c9 a1bd
000001e0: 2238 be3d 18c1 6f3d 34f3 c73d 1d3f 18be
000001f0: 9383 7a3c c133 e13c f07e b7bd 7e69 77bd
00000200: 5ae4 b23d 3664 d73d 45db cd3d 9211 c03d
00000210: 4a41 37be c4c0 55bd 3335 c3bd 4fa0 14bd
00000220: a616 be3d 34bc 3abd 841d 0b3e 7bf0 09be
00000230: fe04 06bd 6f9c db39 0015 8abd c98d b23c
00000240: f907 793c d2b6 603d 56f8 b53d 36a1 e5bd
00000250: 7368 12be 0f38 71be 36ac 2bbd 7888 3f3d
00000260: 7186 d03d 3560 8abe 34a1 d53b 73ff 34be
00000270: 8f29 b0bc 838f 77be 9cd1 ddbd d874 063e
00000280: 3fe4 18be a7a9 bb3d fd53 053e 9001 933d
00000290: 5c15 0cbe 733c d03c e4b0 433d 9202 64be
000002a0: a278 313d d68c fbbd be29 3f3d e340 a03d
000002b0: 28b6 d8bc 0f4c 14be 667b 6fbe 5656 20bc
000002c0: 47fa 3abe 8899 abbe dd45 3bbe 4eeb 453c
000002d0: 479f 2ebe f125 923d fb34 f23c 287b b4bc
000002e0: dc3b 33be 5b64 1b3d 16da a5bc ab37 d6bd
000002f0: 20b4 50be b174 9e3e 40ff 12be 971b 083d
00000300: 5084 9abe a6c3 c83c 31cd 9f3d ded2 d8bd
00000310: f74a 89bc 78f8 96bd 1a05 103c df62 d4bd
00000320: 8dda 26bc 6ebf bc3b 1fc5 1dbd 991a da3d
00000330: d3b1 17be 6dbe 003e a22b ad3d db0e c33b
00000340: 571a 0fbc a78b 5d3d baa5 a7bd c8d6 b83d
00000350: 7047 09be 0cb8 6c3e 1fee 1ebc 81d9 2cbe
00000360: 0b99 0c3c 1c9e d93c 009d 80be a8bb 9c3d
00000370: b8db 4cbd 5e36 843d 6691 363e 24d7 3d3d
00000380: c517 223d b49b c6bd 44f1 4dbe 78c3 4cbe
00000390: b7d2 f93d 59a7 eb3c 9230 413d 0e6b 08bb
000003a0: 3bf2 bdbd ed5b 53bd 8c38 033a 867e 30be
000003b0: 15fa 7fbd dc0b 2dbe 8852 f3bd b8a6 17bd
000003c0: 4cfa 393e abc2 96bd c2d1 4bbd 2396 f13c
000003d0: 75cd eb3d 93ea a7bc 06d0 39be 9180 52bd
000003e0: 77f9 6f3c f2e0 8fbd 4c3c 41be c452 143e
000003f0: 3aa5 3cbe 7937 9bbd b8fb 99be 0c64 9a3d

fc2.bias f4 [128]
-0.1684766 -0.35455573 -0.24567577 -0.2647642 0.19486709 0.15553355 -0.09232858 -0.28238606
0.03570484 -0.17995591 -0.24188446 -0.2871778 0.12640233 0.24287406 -0.19112644 0.39364997
-0.25320044 -0.23655017 -0.08648114 -0.16266568 0.21666184 0.23817202 0.014581602 -0.33136132
0.16278523 -0.23745525 -0.25633788 -0.09200536 -0.2767038 0.17009522 -0.17771356 0.16302946
-0.21776782 -0.19191115 -0.22729295 -0.04402442 0.0020329002 -0.247198 -0.19619854 -0.22633274
-0.25232843 -0.12051355 -0.23118648 0.009149807 0.034448363 0.16540657 -0.26612964 -0.29851913
-0.2579382 -0.041264713 0.2628918 -0.21717763 0.24664082 -0.19370665 -0.20928909 0.12335848
0.23536377 0.3393207 0.066298105 -0.15430582 -0.09460594 -0.33285385 0.27269173 -0.27420416
-0.15832129 -0.23210557 0.0042377007 -0.20949188 0.119477995 0.12666225 -0.21429898 -0.1862381
0.05495777 0.075956576 -0.120207824 -0.28888184 0.19815922 0.11672271 0.17940809 -0.30778864
-0.24422859 -0.30565187 -0.19954169 0.010452095 0.21538422 -0.16519053 -0.23021941 -0.18286029
-0.008147912 -0.16716158 -0.18946624 -0.07776516 0.20100793 0.012896865 -0.11500964 -0.25703356
-0.13730057 0.25778812 0.24845648 0.040288843 0.08473531 0.05363985 -0.07300706 0.13691057
-0.21228573 -0.2595669 -0.3561235 -0.24471633 -0.23546134 0.31925976 -0.24899429 -0.28656927
0.028499696 -0.075421564 -0.15967403 0.16559498 -0.31472254 -0.14030105 0.28012282 -0.12039936
0.38732117 -0.105241895 -0.22213359 0.04881188 -0.0388585 -0.21399836 -0.008937474 0.010168791
00000000: 2185 2cbe 5488 b5be 6e92 7bbe 2c8f 87be
00000010: 3d8b 473e 3044 1f3e c416 bdbd e894 90be
00000020: 3d3f 123d 5d46 38be 8fb0 77be f808 93be
00000030: 9d6f 013e fab3 783e a6b6 43be 7d8c c93e
00000040: 7da3 81be 353a 72be 061d b1bd d591 26be
00000050: 9adc 5d3e 5ee3 733e ace7 6e3c 31a8 a9be
00000060: 2cb1 263e 7827 73be b83e 83be 4e6d bcbd
00000070: 1fac 8dbe 712d 2e3e 8bfa 35be 32f1 263e
00000080: 87fe 5ebe 5b84 44be 7cbf 68be f352 34bd
00000090: 683a 053b 7921 7dbe 45e8 48be c5c3 67be
000000a0: 3131 81be cfcf f6bd 26bc 6cbe 12e9 153c
000000b0: ba19 0d3d 5760 293e 2542 88be 80d7 98be
000000c0: 7a10 84be 3005 29bd c199 863e d063 5ebe
000000d0: 698f 7c3e 095b 46be e14f 56be 5fa3 fc3d
000000e0: 3303 713e 71bb ad3e 4dc7 873d 5802 1ebe
000000f0: c2c0 c1bd d26b aabe 409e 8b3e 7d64 8cbe
00000100: fa1e 22be 15ad 6dbe 69dc 8a3b 0a85 56be
00000110: e1b0 f43d c0b3 013e 3171 5bbe 33b5 3ebe
00000120: 661b 613d 1f8f 9b3d 852f f6bd 52e8 93be
00000130: 40ea 4a3e 510c ef3d c1b6 373e 7996 9dbe
00000140: 0f17 7abe 677e 9cbe a854 4cbe 443f 2b3c
00000150: ae8d 5c3e b527 29be a3be 6bbe ba3f 3bbe
00000160: d27e 05bc 682c 2bbe 7003 42be 5743 9fbd
00000170: 06d5 4d3e 5f4d 533c 2d8a ebbd e799 83be
00000180: 8598 0cbe cefc 833e 606b 7e3e ea05 253d
00000190: b589 ad3d 76b5 5b3d ba84 95bd 4932 0c3e
000001a0: 6e61 59be f4e5 84be d255 b6be eb96 7abe
000001b0: c71c 71be 0476 a33e 5cf8 7ebe 35b9 92be
000001c0: 3278 e93c 9f76 9abd 9781 23be bb91 293e
000001d0: 5023 a1be 14ab 0fbe 426c 8f3e f193 f6bd
000001e0: f64e c63e 1089 d7bd fd76 63be f7ee 473d
000001f0: 172a 1fbd 6322 5bbe 7c6e 12bc 009b 263c

fc3.weight f4 [1, 128]
-0.070124805 -0.33700833 -0.16913529 -0.16031301 0.11036202 0.10564585 0.15880369 -0.12950797
0.14658825 -0.11065912 -0.21322852 -0.17751864 0.12312421 0.10699468 0.2156174 0.12953098
-0.1590312 -0.17775868 0.17306574 -0.18555026 0.12065475 0.09657777 0.14362964 -0.13347358
0.10089793 -0.1587402 -0.13773826 0.20691046 -0.35512424 0.14439215 -0.1485283 0.09732829
-0.13455997 -0.13065593 -0.19258304 0.1446748 0.09974681 -0.12948182 -0.14483228 -0.12664883
-0.13852462 -0.086355776 -0.10079531 0.09820766 0.10508279 0.13826971 -0.13285449 -0.20571442
-0.27512756 0.15404145 0.12723991 -0.15837939 0.12255947 -0.22614424 -0.13976182 0.117588766
0.10688776 0.15938088 0.11735739 -0.190333 0.18280219 -0.5343028 0.07311751 -0.14551656
0.17655854 -0.085847385 0.080262974 -0.17335653 0.15798663 0.08196228 -0.13190532 -0.17206243
0.1485829 0.11144014 -0.15189874 -0.18388791 0.104748726 0.07491154 0.103976615 -0.15500683
-0.15461636 -0.12236436 -0.10954499 0.09111584 0.10672462 0.2881061 -0.10986819 -0.11772862
0.11567507 -0.12561807 -0.14659014 -0.14729047 0.124251164 0.15197289 -0.08140801 -0.2010562
-0.1192131 0.12360239 0.13074474 0.10501087 0.09499447 0.1444696 -0.08984574 0.09944565
-0.11521887 -0.12638831 -0.14560875 -0.31473345 -0.13748547 0.10294152 -0.12793493 -0.13466647
0.14076559 -0.11349519 -0.09789859 0.14021459 -0.12471397 -0.1253093 0.10588461 0.17903864
0.12992789 0.15308683 -0.15790011 0.16224994 0.12100962 -0.19780302 0.112629786 0.13136254
00000000: 989d 8fbd 5b8c acbe cd31 2dbe 1829 24be
00000010: 7c05 e23d da5c d83d 6f9d 223e bd9d 04be
00000020: 3b1b 163e 40a1 e2bd 9458 5abe 72c7 35be
00000030: 8c28 fc3d 0720 db3d cfca 5c3e c5a3 043e
00000040: 13d9 22be 5f06 36be 2538 313e e300 3ebe
00000050: d619 f73d 91ca c53d a613 133e 4cad 08be
00000060: 93a3 ce3d ca8c 22be 420b 0dbe 56e0 533e
00000070: d8d2 b5be 89db 133e cd17 18be 0e54 c73d
00000080: 17ca 09be abca 05be 7d34 45be a125 143e
00000090: 0e48 cc3d e296 04be ea4e 14be 3bb0 01be
000000a0: 66d9 0dbe 4cdb b0bd c66d cebd 1921 c93d
000000b0: a535 d73d 9396 0d3e 020b 08be cda6 52be
000000c0: 85dd 8cbe 0bbd 1d3e 2e4b 023e 352e 22be
000000d0: 7600 fb3d 5b92 67be b91d 0fbe 61d2 f03d
000000e0: f8e7 da3d be34 233e 1259 f03d a7e6 42be
000000f0: 7f30 3b3e 11c8 08bf a2be 953d 4b02 15be
00000100: c3cb 343e c1d0 afbd ea60 a43d 6084 31be
00000110: 3fc7 213e d7db a73d 3012 07be 2231 30be
00000120: 1e26 183e ba3a e43d 588b 1bbe 1d4d 3cbe
00000130: 8086 d63d 396b 993d b1f1 d43d 1cba 1ebe
00000140: c053 1ebe 2a9a fabd 2059 e0bd f19a ba3d
00000150: 7092 da3d a582 933e 9302 e1bd b41b f1bd
00000160: 0de7 ec3d 06a2 00be ba1b 16be 50d3 16be
00000170: 6577 fe3d c89e 1b3e 3eb9 a6bd ade1 4dbe
00000180: ff25 f4bd 4023 fd3d f3e1 053e f00f d73d
00000190: 768c c23d d7ef 133e 0b01 b8bd 29aa cb3d
000001a0: dff7 ebbd f06b 01be 761a 15be be24 a1be
000001b0: fec8 0cbe 01d3 d23d 6001 03be 02e6 09be
000001c0: db24 103e 2b70 e8bd 0e7f c8bd 6a94 0f3e
000001d0: 0a6a ffbd 1551 00be 08da d83d e855 373e
000001e0: d10b 053e cbc2 1c3e 91b0 21be d924 263e
000001f0: e4d3 f73d e08c 4abe 72aa e63d e783 063e

bn1.weight f4 [128]
0.9833957 0.5007079 0.46836758 0.47406232 0.71196103 0.35786504 0.5738241 0.4344841
0.34294426 0.93428475 0.7014394 0.3263977 0.40570292 0.46703792 0.2724383 0.4225835
0.61057687 0.52513695 0.7348932 0.6589654 0.43699688 0.6143161 0.4083988 0.632359
0.40730983 0.4787789 0.62463015 0.28349772 0.32592958 0.46506238 0.5016348 0.36805645
0.56552565 0.59970707 0.39348966 0.37621492 0.6422485 0.68912476 0.35391945 0.56331116
0.44192025 0.47979087 0.55636716 0.5654329 0.48881164 0.46678022 0.5797477 0.5314581
0.71249187 0.64255136 0.555704 0.24324937 0.59796876 0.699847 0.42169958 0.34132925
0.59909207 0.2973581 0.48301405 0.6371401 0.81458706 0.42774335 0.47108522 0.64147496
0.4790306 0.5681443 0.6785259 0.6821068 0.54036325 0.8233001 0.5490734 0.3334554
0.38539582 0.55998975 0.48999226 0.4426737 0.4435784 0.8337913 0.8885741 0.42788142
0.56972533 0.37862962 0.40557548 0.3958611 0.62087065 0.34754607 0.20657969 0.5907597
0.5237275 0.8190272 0.39159605 0.22980697 0.48063365 0.46319264 0.49064952 0.35324642
0.38252756 0.38401046 0.5130468 0.46847975 0.8083446 0.89566827 0.7054407 0.33557868
0.601652 0.35780928 0.42450553 0.32457504 0.40247524 0.57160217 0.6658031 0.9390734
0.54704887 0.5179335 0.2695188 0.6061267 0.32778382 0.67383343 0.4310609 0.2912055
0.9062849 0.8677507 0.4366026 0.42052472 0.4090707 0.6553112 0.6391867 0.7632801
00000000: d2bf 7b3f 652e 003f e0cd ef3e 4cb8 f23e
00000010: 1443 363f 163a b73e 23e6 123f b374 de3e
00000020: 6496 af3e 492d 6f3f 8891 333f 991d a73e
00000030: 4bb8 cf3e 981f ef3e 087d 8b3e dd5c d83e
00000040: c44e 1c3f 606f 063f f621 3c3f f5b1 283f
00000050: 0ebe df3e d243 1d3f a619 d13e 48e2 213f
00000060: ea8a d03e 8222 f53e c3e7 1f3f 9d26 913e
00000070: 3ee0 a63e a81c ee3e 236b 003f e571 bc3e
00000080: 4ac6 103f 6786 193f 7a77 c93e 3e9f c03e
00000090: 666a 243f 7b6a 303f ee34 b53e 2935 103f
000000a0: 5f43 e23e 26a7 f53e 146e 0e3f 36c0 103f
000000b0: 8545 fa3e d1fd ee3e 586a 143f a30d 083f
000000c0: de65 363f 3f7e 243f 9e42 0e3f 5d16 793e
000000d0: 7b14 193f 2c29 333f 02e9 d73e b5c2 ae3e
000000e0: 195e 193f 523f 983e 9e4d f73e 9d1b 233f
000000f0: c788 503f 2d01 db3e 1532 f13e b437 243f
00000100: 8043 f53e e871 113f e0b3 2d3f 8d9e 2e3f
00000110: 3f55 0a3f ccc3 523f 1390 0c3f abba aa3e
00000120: 9a52 c53e 7d5b 0f3f 44e0 fa3e 21a6 e23e
00000130: b51c e33e 5973 553f 9879 633f 4613 db3e
00000140: 85d9 113f bedb c13e 97a7 cf3e 4eae ca3e
00000150: 61f1 1e3f 8ff1 b13e a089 533e 073c 173f
00000160: 0113 063f c4ab 513f 477f c83e 8552 6b3e
00000170: 9d15 f63e 9627 ed3e 6a36 fb3e b7dc b43e
00000180: a7da c33e 059d c43e 0957 033f 94dc ef3e
00000190: acef 4e3f 844a 653f c397 343f f8d0 ab3e
000001a0: de05 1a3f c732 b73e ca58 d93e b32e a63e
000001b0: 3c11 ce3e 8554 123f 1272 2a3f 1d67 703f
000001c0: 650b 0c3f 4a97 043f 5efe 893e 1f2b 1b3f
000001d0: 48d3 a73e 5980 2c3f 04b4 dc3e e318 953e
000001e0: 4a02 683f e924 5e3f 608a df3e 044f d73e
000001f0: b771 d13e 7ac2 273f bda1 233f 5366 433f

bn1.bias f4 [128]
0.23294473 0.02038376 -0.02435901 -0.07366359 0.13712466 0.09150515 0.030228257 -0.0600042
0.05961565 -0.14339118 0.18006444 -0.0514644 0.049261905 -0.0550781 -0.08629092 -0.009419495
0.35687777 0.13118699 0.23431322 0.053879753 0.04518439 0.07505634 -0.040397264 0.022896465
-0.13013805 0.09614835 0.2529343 -0.12772535 -0.13339707 0.104970604 -0.16550507 0.029900486
0.023759034 0.13387716 -0.019795405 0.19003916 -0.012113746 0.11485962 -0.10228727 0.0396183
-0.03295599 0.0144790765 0.23621604 0.1950159 0.04136077 0.23363815 0.115421236 -0.038026635
0.15113644 0.046342865 0.18189646 -0.03156608 0.09435451 0.15797815 -0.006001641 0.14768614
0.15580891 -0.2905993 0.09872991 0.28079054 0.026410472 -0.030415943 0.045163196 -0.02138046
0.016976021 -0.0205413 0.20267771 0.12481484 0.10092702 -0.009891725 0.14688465 -0.07709583
-0.022004353 -0.041941922 -0.18112157 -0.059652697 0.11840204 -0.13596664 0.061637547 0.04915938
0.07572993 -0.13449566 -0.051905338 0.1695256 0.24504103 0.08220612 -0.24591605 -0.028157441
0.06692727 -0.12124045 -0.18122828 -0.039394192 0.1102205 0.010793694 0.097153164 0.017815499
0.030907584 -0.028960586 -0.00837549 0.075250946 -0.014437188 0.18067406 0.02117848 -0.07950191
0.2983628 -0.08604466 0.03132134 0.26712587 0.0890376 0.0040706876 0.16668811 -0.02766268
-0.27967736 0.13228491 0.3532592 -0.11575179 -0.048131637 0.2407909 0.10072885 -0.09597867
0.06632296 0.16472109 0.004056099 0.03375869 0.19689783 0.11867187 0.26215282 0.21922883
00000000: 1089 6e3e d8fb a63c 8c8c c7bc f0dc 96bd
00000010: 686a 0c3e 0d67 bb3d 40a1 f73c f7c6 75bd
00000020: 8a2f 743d 23d5 12be d062 383e 56cc 52bd
00000030: dac6 493d 9399 61bd 4bb9 b0bd 3a54 1abc
00000040: afb8 b63e e255 063e ceef 6f3e 04b1 5c3d
00000050: 4413 393d 23b7 993d 9a77 25bd 5e91 bb3c
00000060: e942 05be 6de9 c43d 9b80 813e 6fca 02be
00000070: 3e99 08be d4fa d63d 297a 29be ddf1 f43c
00000080: 4ea2 c23c 1817 093e f929 a2bc a099 423e
00000090: bc78 46bc 853b eb3d fd7b d1bd cc46 223d
000000a0: dcfc 06bd a639 6d3c 9ee2 713e 40b2 473e
000000b0: e969 293d d73e 6f3e f861 ec3d d1c1 1bbd
000000c0: 83c3 1a3e 04d2 3d3d 1143 3a3e 6f4b 01bd
000000d0: f03c c13d 06c5 213e 6aa9 c4bb 093b 173e
000000e0: 5f8c 1f3e 6ec9 94be e832 ca3d c7c3 8f3e
000000f0: c65a d83c db2a f9bc 0bfd 383d 1326 afbc
00000100: 4c11 8b3c 3a46 a8bc bf8a 4f3e ec9e ff3d
00000110: d3b2 ce3d e710 22bc ee68 163e 6be4 9dbd
00000120: 7942 b4bc 4bcb 2bbd ef77 39be 6356 74bd
00000130: c57c f23d d73a 0bbe a777 7c3d 595b 493d
00000140: 4b18 9b3d 3bb9 09be b19a 54bd 1e98 2d3e
00000150: 09ec 7a3e af5b a83d 6bd1 7bbe 6faa e6bc
00000160: 2a11 893d ea4c f8bd e893 39be ce5b 21bd
00000170: 49bb e13d 09d8 303c 3df8 c63d cff1 913c
00000180: e731 fd3c c03e edbc 5a39 09bc 2b1d 9a3d
00000190: f589 6cbc 9f02 393e 7e7e ad3c e6d1 a2bd
000001a0: 02c3 983e 2f38 b0bd ce4a 003d b9c4 883e
000001b0: 5859 b63d 6763 853b 4ab0 2a3e d89c e2bc
000001c0: df31 8fbe b275 073e 64de b43e 460f edbd
000001d0: ae25 45bd e491 763e ed4a ce3d 7790 c4bd
000001e0: 55d4 873d a5ac 283e 06e9 843b 8d46 0a3d
000001f0: 969f 493e 3d0a f33d e538 863e 867d 603e

bn1.running_mean f4 [128]
0.12812379 0.17059982 0.048047286 0.109277315 0.5782098 0.17019628 0.1797394 0.14247741
0.1043173 0.17916703 0.02639861 0.17519325 0.037512917 0.07795786 0.042922493 0.11964436
0.52133924 0.23816289 0.36264217 0.1500657 0.03767419 0.1865291 0.08919223 0.077650644
0.17466211 0.539505 0.18940212 0.12222645 0.31262833 0.22884582 0.13857467 0.7224046
0.14704669 0.20375729 0.26244852 0.622332 0.15026842 0.18219014 0.050423246 0.10563324
0.20465016 0.48994517 0.26613683 0.039513286 0.39633006 0.32467437 0.21883366 0.83057773
0.34974366 0.42218545 0.20186788 0.024139965 0.2983991 0.25361717 0.10566752 0.10594703
0.37797913 0.14570384 0.14924312 0.23840933 0.131147 0.08785008 0.14382003 0.22150487
0.06006832 0.32695308 0.2018925 0.57636046 0.14275697 0.20429526 0.041900884 0.62003
0.38612092 0.3501553 0.10106188 0.094835296 0.04022775 0.40142614 0.12034962 0.046055034
0.19626263 0.115203604 0.18484709 0.09131442 0.12961377 0.03999322 0.019913075 0.26159188
0.12662348 0.082853824 0.07217051 0.2502049 0.034755412 0.1948243 0.22315632 0.58594155
0.123560764 0.16793898 0.20418027 0.25872508 0.19881348 0.253399 0.15574612 0.026723176
0.28848627 0.68455195 0.09536241 0.028533466 0.07629343 0.11679602 0.44141874 0.11893495
0.39181274 0.28817952 0.040133998 0.17434993 0.30382505 0.21292418 0.28369653 0.11332382
0.121406935 0.14020829 0.12022919 0.057846077 0.5508178 0.061597634 0.113327 0.17949748
00000000: e232 033e b8b1 2e3e 3bcd 443d c9cc df3d
00000010: 8f05 143f ef47 2e3e 9b0d 383e 99e5 113e
00000020: 4fa4 d53d 9077 373e e641 d83c dc65 333e
00000030: 25a7 193d 5fa8 9f3d 7fcf 2f3d 1a08 f53d
00000040: 7d76 053f f9e0 733e 3cac b93e d3aa 193e
00000050: 4050 1a3d 7c01 3f3e 6aaa b63d 4d07 9f3d
00000060: a0da 323e 001d 0a3f a1f2 413e dc51 fa3d
00000070: d210 a03e 8f56 6a3e 85e6 0d3e 82ef 383f
00000080: 6893 163e c0a5 503e a75f 863e 2651 1f3f
00000090: f7df 193e 0d90 3a3e 9b88 4e3d 3d56 d83d
000000a0: d08f 513e 18da fa3e 1643 883e afd8 213d
000000b0: c6eb ca3e b83b a63e ee15 603e bea0 543f
000000c0: 9a11 b33e b128 d83e 74b6 4e3e 2dc1 c53c
000000d0: c4c7 983e 1cda 813e 3668 d83d c2fa d83d
000000e0: 7b86 c13e 6333 153e 30d3 183e 9321 743e
000000f0: 664b 063e beea b33d 8f45 133e 2cd2 623e
00000100: 330a 763d 6566 a73e e8bc 4e3e 5c8c 133f
00000110: e22e 123e c732 513e 43a0 2b3d 49ba 1e3f
00000120: a4b1 c53e 8e47 b33e 88f9 ce3d 0239 c23d
00000130: dac5 243d ba87 cd3e dd79 f63d 34a4 3c3d
00000140: 12f9 483e deef eb3d 8e48 3d3e 0e03 bb3d
00000150: 79b9 043e eecf 233d bf20 a33c 5fef 853e
00000160: 96a9 013e 44af a93d 22ce 933d db1a 803e
00000170: b15b 0e3d 0580 473e 1783 643e 4400 163f
00000180: 6d0d fd3d 32f8 2b3e a214 513e 9d77 843e
00000190: c395 4b3e 84bd 813e e97b 1f3e 90ea da3c
000001a0: 79b4 933e cc3e 2f3f 5e4d c33d 04bf e93c
000001b0: bb3f 9c3d c032 ef3d a301 e23e 2b94 f33d
000001c0: ae9b c83e 448c 933e 8c63 243d ca88 323e
000001d0: f58e 9b3e cc08 5a3e ac40 913e 5216 e83d
000001e0: 33a4 f83d c392 0f3e b93a f63d 02f0 6c3d
000001f0: 6502 0d3f cd4d 7c3d fc17 e83d 30ce 373e

bn1.running_var f4 [128]
0.07875978 0.085300036 0.019554682 0.07154117 0.25277933 0.099577814 0.119871736 0.078719676
0.05042322 0.11915417 0.011222491 0.14027305 0.030198313 0.033452127 0.02266909 0.06742062
0.52050894 0.16606537 0.16388802 0.08413326 0.014601776 0.10421141 0.051557086 0.030342352
0.12628391 0.41983926 0.078946605 0.10261233 0.28574887 0.10283639 0.051310763 0.31754693
0.10276767 0.09169332 0.17049083 0.16438061 0.0834103 0.106120445 0.027379187 0.046297852
0.112069 0.41360432 0.104869 0.016718457 0.16195564 0.20784989 0.13950193 0.43095532
0.26824817 0.22576705 0.10214823 0.024828186 0.12156202 0.1915619 0.05193716 0.06948058
0.35841343 0.09128576 0.08113569 0.13599949 0.0606359 0.059800133 0.041818697 0.12122576
0.035555165 0.2652245 0.100857764 0.24152958 0.084293745 0.15334591 0.01982015 0.48572344
0.16652042 0.1828274 0.051435363 0.04180326 0.038872104 0.19791086 0.056359515 0.03082628
0.16295055 0.07588888 0.09711885 0.06320866 0.08574392 0.01527324 0.010498706 0.21002418
0.0687626 0.03993769 0.036601525 0.16711028 0.020549979 0.12002171 0.09064526 0.19313279
0.075435534 0.123458646 0.107492834 0.19536747 0.13207027 0.14245532 0.07991384 0.014779275
0.18807095 0.421571 0.04297296 0.012931194 0.027535334 0.043980338 0.12219601 0.063706964
0.33838892 0.0826373 0.013911654 0.06440993 0.18485719 0.14261071 0.11277506 0.07106731
0.06738409 0.06524867 0.061914373 0.034547467 0.12608972 0.03392051 0.0566649 0.1119284
00000000: cf4c a13d c9b1 ae3d 2431 a03c 2d84 923d
00000010: 4b6c 813e 74ef cb3d 507f f53d c837 a13d
00000020: 9488 4e3d 1a07 f43d 8ade 373c bda3 0f3e
00000030: 7462 f73c 1905 093d 87b4 b93c d213 8a3d
00000040: 1340 053f 0a0d 2a3e 43d2 273e 0f4e ac3d
00000050: 4a3c 6f3c cb6c d53d 862d 533d 8690 f83c
00000060: 9250 013e 2cf5 d63e c2ae a13d 6a26 d23d
00000070: ad4d 923e e39b d23d 3c2b 523d 8395 a23e
00000080: db77 d23d b5c9 bb3d 2695 2e3e 6453 283e
00000090: 05d3 aa3d ad55 d93d 514a e03c d1a2 3d3d
000000a0: 6f84 e53d f2c3 d33e 8fc5 d63d 25f5 883c
000000b0: b3d7 253e 9ad6 543e 98d9 0e3e 2da6 dc3e
000000c0: d357 893e 7a2f 673e 1733 d13d 7b64 cb3c
000000d0: 82f5 f83d cd28 443e 0fbc 543d d64b 8e3d
000000e0: f781 b73e 07f4 ba3d 782a a63d 7343 0b3e
000000f0: 595d 783d fcf0 743d 154a 2b3d 3645 f83d
00000100: 4ba2 113d 81cb 873e 848e ce3d 8853 773e
00000110: 33a2 ac3d b606 1d3e de5d a23c beb0 f83e
00000120: 5484 2a3e 1b37 3b3e e3ad 523d e539 2b3d
00000130: 5b38 1f3d 25a9 4a3e 3cd9 663d 6587 fc3c
00000140: 82dc 263e a16b 9b3d 3fe6 c63d 8b73 813d
00000150: 829a af3d 9d3c 7a3c c402 2c3c 9410 573e
00000160: 68d3 8c3d b495 233d 7beb 153d f51e 2b3e
00000170: 6e58 a83c f1cd f53d 39a4 b93d 9ac4 453e
00000180: f27d 9a3d e3d7 fc3d 3425 dc3d 690e 483e
00000190: 6e3d 073e cfdf 113e dea9 a33d c624 723c
000001a0: ac95 403e 27d8 d73e 6a04 303d 5cdd 533c
000001b0: c891 e13c ba24 343d e741 fa3d cc78 823d
000001c0: 5041 ad3e bf3d a93d b5ed 633c 5ae9 833d
000001d0: 344b 3d3e 8b08 123e 9cf6 e63d bd8b 913d
000001e0: ab00 8a3d 18a1 853d ed99 7d3d a581 0d3d
000001f0: aa1d 013e 3cf0 0a3d 7419 683d b83a e53d
